checkpoint_actor.pth (torch_old, 92446 bytes, 18 tensors)

bn1.weight f4 [33]
0	0x3f41f425	0.7576316
1	0x3e8f01d6	0.27931088
2	0x3ece5f18	0.40306926
3	0x3f3c1448	0.73468447
4	0x3cefdfe0	0.029281557
5	0x3f4cc389	0.7998586
6	0x3ecb5596	0.39713734
7	0x3f411e85	0.75437194
8	0x3f11cb4f	0.5695085
9	0x3ee0a780	0.43877792
10	0x3f238090	0.63868046
11	0x3f065081	0.5246659
12	0x3f2ebfcc	0.6826141
13	0x3e9c3c8e	0.3051495
14	0x3eed55da	0.46354562
15	0x3ee8f3f8	0.45498633
16	0x3f128d86	0.572472
17	0x3efefa32	0.4980026
18	0x3f6fe4b2	0.93708336
19	0x3f27d514	0.65559506
20	0x3ea0a9fc	0.31379688
21	0x3e4ac594	0.19801933
22	0x3ed51724	0.41619217
23	0x3e9193a8	0.28432965
24	0x3eadf716	0.33977574
25	0x3f0620fc	0.5239408
26	0x3f4c4dea	0.7980639
27	0x3f45929c	0.77176833
28	0x3c37e740	0.011224568
29	0x3f4f598e	0.80996025
30	0x3f23c232	0.63968194
31	0x3f796a44	0.97427773
32	0x3f547cd7	0.8300299

bn1.bias f4 [33]
0	0x00000000	0.0
1	0x00000000	0.0
2	0x00000000	0.0
3	0x00000000	0.0
4	0x00000000	0.0
5	0x00000000	0.0
6	0x00000000	0.0
7	0x00000000	0.0
8	0x00000000	0.0
9	0x00000000	0.0
10	0x00000000	0.0
11	0x00000000	0.0
12	0x00000000	0.0
13	0x00000000	0.0
14	0x00000000	0.0
15	0x00000000	0.0
16	0x00000000	0.0
17	0x00000000	0.0
18	0x00000000	0.0
19	0x00000000	0.0
20	0x00000000	0.0
21	0x00000000	0.0
22	0x00000000	0.0
23	0x00000000	0.0
24	0x00000000	0.0
25	0x00000000	0.0
26	0x00000000	0.0
27	0x00000000	0.0
28	0x00000000	0.0
29	0x00000000	0.0
30	0x00000000	0.0
31	0x00000000	0.0
32	0x00000000	0.0

bn1.running_mean f4 [33]
0	0x00000000	0.0
1	0x00000000	0.0
2	0x00000000	0.0
3	0x00000000	0.0
4	0x00000000	0.0
5	0x00000000	0.0
6	0x00000000	0.0
7	0x00000000	0.0
8	0x00000000	0.0
9	0x00000000	0.0
10	0x00000000	0.0
11	0x00000000	0.0
12	0x00000000	0.0
13	0x00000000	0.0
14	0x00000000	0.0
15	0x00000000	0.0
16	0x00000000	0.0
17	0x00000000	0.0
18	0x00000000	0.0
19	0x00000000	0.0
20	0x00000000	0.0
21	0x00000000	0.0
22	0x00000000	0.0
23	0x00000000	0.0
24	0x00000000	0.0
25	0x00000000	0.0
26	0x00000000	0.0
27	0x00000000	0.0
28	0x00000000	0.0
29	0x00000000	0.0
30	0x00000000	0.0
31	0x00000000	0.0
32	0x00000000	0.0

bn1.running_var f4 [33]
0	0x3f800000	1.0
1	0x3f800000	1.0
2	0x3f800000	1.0
3	0x3f800000	1.0
4	0x3f800000	1.0
5	0x3f800000	1.0
6	0x3f800000	1.0
7	0x3f800000	1.0
8	0x3f800000	1.0
9	0x3f800000	1.0
10	0x3f800000	1.0
11	0x3f800000	1.0
12	0x3f800000	1.0
13	0x3f800000	1.0
14	0x3f800000	1.0
15	0x3f800000	1.0
16	0x3f800000	1.0
17	0x3f800000	1.0
18	0x3f800000	1.0
19	0x3f800000	1.0
20	0x3f800000	1.0
21	0x3f800000	1.0
22	0x3f800000	1.0
23	0x3f800000	1.0
24	0x3f800000	1.0
25	0x3f800000	1.0
26	0x3f800000	1.0
27	0x3f800000	1.0
28	0x3f800000	1.0
29	0x3f800000	1.0
30	0x3f800000	1.0
31	0x3f800000	1.0
32	0x3f800000	1.0

fc1.weight f4 [128, 33]
0	0x3db00636	0.08594935
1	0x3e339b8f	0.1753981
2	0x3e42776b	0.18990867
3	0x3f133368	0.57500315
4	0xbed2410e	-0.41065258
5	0x3e35fc8b	0.17772119
6	0x3bcfea63	0.0063450797
7	0xbde657a7	-0.11247187
8	0x3d233248	0.039842874
9	0xbd49a552	-0.049229927
10	0x3c1e6053	0.00966652
11	0x3d54c2e0	0.05194366
12	0xbcf1cd89	-0.029516952
13	0x3db2504c	0.08706722
14	0xbcbc75c0	-0.023005366
15	0xbdab81aa	-0.08374341
16	0x3e4e3e44	0.2014094
17	0xbe9ecab4	-0.31014025
18	0xbe25666c	-0.16152352
19	0xbe915568	-0.28385472
20	0xbbe51df3	-0.0069920956
21	0xbd9b0e32	-0.07571067
22	0x3c812622	0.015765253
23	0x3d08a34a	0.03335885
24	0xbcb86cc7	-0.022512807
25	0xbcbc1d15	-0.022963086
26	0xb900efcb	-0.00012296361
27	0x3e1d51ec	0.15363282
28	0xbe418c6a	-0.1890122
29	0x3d70f3b6	0.05882617
30	0xbe825833	-0.25457916
31	0x3bcab9d0	0.0061867014
32	0x3f1ade61	0.60495573
33	0x3e2ab1d1	0.16669394
34	0xbc06a490	-0.008217946
35	0x3db128a2	0.08650328
36	0x3e738967	0.23782884
37	0x3e3d6606	0.1849595
38	0x3eae2296	0.34010762
39	0x3de48354	0.11157861
40	0xbe00e65b	-0.12587874
41	0xbdb3157a	-0.08744331
42	0xbe68e73b	-0.22744457
43	0x3dcebed1	0.10094989
44	0xbc44153b	-0.011967952
45	0x3dccdc2e	0.100029334
46	0xbe11c5d2	-0.14235619
47	0x3dc2e60c	0.09516534
48	0x3db42f7d	0.0879812
49	0xbf0e7d49	-0.5565992
50	0x3e9ee00a	0.31030303
51	0xbe24e83f	-0.1610422
52	0xbeb51661	-0.35368636
53	0x3d9bc839	0.07606549
54	0x3d9a1a4e	0.075245485
55	0x3d33ec22	0.043926366
56	0x3e00d1b5	0.12579997
57	0xbc2e0b91	-0.010622875
58	0x3e5ae53c	0.21376508
59	0x3df01657	0.11723011
60	0x3c5503e1	0.013001413
61	0x3da8f9f7	0.08250802
62	0xbd4a21f4	-0.049348786
63	0xbe15ab94	-0.14616233
64	0xbd788e5c	-0.06068264
65	0x3d289618	0.041158766
66	0x3d2c0c80	0.04200411
67	0xbc7d2310	-0.015450254
68	0x3badd37e	0.005304753
69	0xbec874f1	-0.3915172
70	0xbd9ae94c	-0.07564029
71	0x3e2d501f	0.16925095
72	0x3e6f33cc	0.23359603
73	0xbd16b4e9	-0.036793623
74	0xbc819f1e	-0.015822943
75	0x3d835f45	0.064146556
76	0xbc8a6b33	-0.01689682
77	0x3ca4f87e	0.020138022
78	0x3c142739	0.009042555
79	0x3daa2131	0.08307112
80	0x3d21161d	0.03932773
81	0x3d55d0eb	0.052201193
82	0x3db58513	0.088632725
83	0x3d896416	0.06708543
84	0xbe376eed	-0.17913409
85	0xbe83504f	-0.25647208
86	0xbc789c49	-0.01517398
87	0xbc857ee8	-0.016295865
88	0x3cbb3b38	0.022855386
89	0x3d1e23be	0.038608305
90	0xbc9c7505	-0.019098768
91	0x3bdf51ea	0.006815185
92	0xbceb94e5	-0.028757522
93	0x3e13d3ba	0.14436236
94	0xbd3d58ba	-0.046227194
95	0xbcd9bdf0	-0.026579827
96	0xbe0cfb59	-0.13767757
97	0xbd90a826	-0.07063322
98	0xbfc591ac	-1.543508
99	0xbccfc846	-0.025364053
100	0xbda8c911	-0.082414754
101	0xbe0597c3	-0.13046174
102	0x3de50a9f	0.111836664
103	0xbe5b0f75	-0.21392615
104	0xbe9dc463	-0.30813894
105	0x3e25bcfb	0.16185372
106	0x3d0a4bc1	0.03376365
107	0x3d34d00f	0.044143733
108	0xbe020d3a	-0.12700358
109	0xbce89e0d	-0.028395677
110	0xbd85b750	-0.06529105
111	0x3b490f33	0.0030679225
112	0x3c27b089	0.01023496
113	0x3c1faf0b	0.009746323
114	0x3deee871	0.116654284
115	0xbe56200b	-0.20910661
116	0x3e75b503	0.23994832
117	0xbe04eea0	-0.12981653
118	0x3b86385a	0.004096073
119	0xbc74c3e6	-0.014939284
120	0xbcfe24de	-0.031023439
121	0xbdac40e9	-0.08410818
122	0x3d076ed7	0.03306469
123	0xbb4a6771	-0.003088441
124	0x3d0f74c3	0.035023462
125	0x3df912ca	0.12161787
126	0x3e08b16b	0.1334893
127	0xbd503e31	-0.05084056
128	0xbce0a14e	-0.027420666
129	0xbdc07745	-0.09397749
130	0xbd57a346	-0.052645944
131	0x3fa4c32e	1.2872064
132	0x3da893d7	0.08231323
133	0x3e520f51	0.20513655
134	0x3ebc9f26	0.3684017
135	0x3e253df6	0.16136917
136	0x3ea2c671	0.31792024
137	0xbea2bb0d	-0.31783333
138	0x3ebf184f	0.37323233
139	0xbd04a75b	-0.032386165
140	0x3de78118	0.113039196
141	0x3dd55e52	0.10418381
142	0xbc8b75a5	-0.01702387
143	0x3d88dafa	0.066823915
144	0x3c37f18d	0.011227024
145	0xbc0f2f5b	-0.008739318
146	0xbe382280	-0.1798191
147	0xbe5d32f5	-0.2160147
148	0xbc3f8a60	-0.011690706
149	0xbe6ee203	-0.23328404
150	0x3e03c9da	0.12869969
151	0xbd3dfeb6	-0.04638549
152	0xbbffdbac	-0.0078081694
153	0xbd0b45b9	-0.03400204
154	0x3ceefa39	0.02917205
155	0xbd17ab28	-0.03702846
156	0xbdd9add9	-0.10628862
157	0xbda4409d	-0.080201365
158	0x3d76508b	0.060135406
159	0x3df0067e	0.11719988
160	0xbdd6d502	-0.10489847
161	0xbcc9eae0	-0.02464813
162	0x3cf73687	0.030177368
163	0xbd5dcd6a	-0.054150976
164	0xbf00827d	-0.5019911
165	0xbd924b0a	-0.07143219
166	0x3e1c33b6	0.15254101
167	0xbba269b1	-0.004956447
168	0xbd3b7346	-0.04576423
169	0x3dd54d97	0.1041519
170	0x3e89bc8f	0.2690167
171	0xbf015059	-0.50513226
172	0x3c9694c5	0.018381486
173	0x3db12a94	0.08650699
174	0x3d0ece48	0.034864694
175	0x3cc5025d	0.024048978
176	0x3db6001d	0.0888674
177	0xbda8b80d	-0.0823823
178	0x3df76345	0.12079481
179	0xbd72391b	-0.05913649
180	0xbdf36c89	-0.11885936
181	0x3e63bb8a	0.22239509
182	0x3ee20d19	0.44150618
183	0xbe1f582f	-0.15560983
184	0xbc08d329	-0.008351126
185	0x3ca1f55a	0.019770313
186	0xbd63f2b5	-0.055651385
187	0x3d79f824	0.06102766
188	0x3e1ac837	0.15115438
189	0xbcfacae4	-0.030614324
190	0xbe0acd0e	-0.13554785
191	0xbe51ae13	-0.2047656
192	0xbd333378	-0.043750256
193	0x3dfa454e	0.1222025
194	0xbc1e3b68	-0.009657718
195	0xbd2f9af2	-0.042872377
196	0x3c65f760	0.01403603
197	0x3f376863	0.71643656
198	0x3dd9837a	0.1062078
199	0x3ba1e30d	0.0049403966
200	0xbe0432d9	-0.12910022
201	0xbe2b385c	-0.16720718
202	0x3e7b71cb	0.24555127
203	0x3ea9c18b	0.33155474
204	0x3e8e71d6	0.27821225
205	0xbc86666f	-0.016406266
206	0xbe1258d2	-0.14291695
207	0x3c3e7132	0.011623668
208	0x3d9d7b1d	0.076894976
209	0xbd2e5fdf	-0.0425719
210	0x3d60016e	0.054688863
211	0xbd4468e7	-0.047951605
212	0x3d206be4	0.039165393
213	0x3ce9895f	0.028507886
214	0xbdd70eb5	-0.10500852
215	0x3e45c7be	0.19314477
216	0xbb80900b	-0.0039234213
217	0x3f2df14b	0.6794631
218	0x3ce4f39f	0.027948199
219	0x3da678e2	0.08128525
220	0x3c9762b6	0.018479686
221	0xbd425e4b	-0.047453206
222	0x3d0564c7	0.032566812
223	0x3d3687fa	0.04456327
224	0xbe01cf9f	-0.12676857
225	0x3d7b2651	0.06131584
226	0xbdec7429	-0.11545593
227	0xbab88680	-0.001407817
228	0xbe10ef26	-0.14153728
229	0xbd28aaf2	-0.04117865
230	0xbf4158fc	-0.75526404
231	0x3cbccb91	0.023046287
232	0xbd2c0115	-0.04199322
233	0xbd94f254	-0.07272783
234	0x3b8fd474	0.00438934
235	0xbdf8d393	-0.121497296
236	0xbef77650	-0.48332453
237	0xbe79e306	-0.24403009
238	0x3cb921b1	0.022599073
239	0x3e38fe6d	0.18065806
240	0xbd994688	-0.07484156
241	0x3d330acd	0.043711472
242	0x3d94035a	0.07227202
243	0x3cf60c86	0.030035269
244	0x3a3a8526	0.00071151776
245	0xbc33126a	-0.010929683
246	0xbbe23f57	-0.0069045234
247	0xb9bad43a	-0.00035634806
248	0x3d9aace0	0.075525045
249	0x3eb4a677	0.35283253
250	0x3e357d93	0.17723684
251	0x3d2d89f7	0.0423679
252	0x3d201b73	0.039088678
253	0xbd11364e	-0.03545218
254	0xbd034377	-0.03204676
255	0xbb60b9c1	-0.0034290405

fc1.bias f4 [128]
0	0xbe7bac37	-0.24577413
1	0xbe1cf03d	-0.15326019
2	0xbd04871d	-0.032355417
3	0xbe60044d	-0.2187664
4	0xbd1521db	-0.03640924
5	0xbd5df335	-0.05418702
6	0xbe78551c	-0.24251217
7	0xbe20dcd5	-0.1570924
8	0xbd23c3d8	-0.039981693
9	0xbe2488b9	-0.1606778
10	0xbe8e94f6	-0.27848023
11	0x3e065954	0.13120013
12	0xbd49123b	-0.04908965
13	0xbe78eda5	-0.24309404
14	0x3dc9b2b1	0.09848536
15	0x3e12306e	0.14276287
16	0xbea0b5ff	-0.31388852
17	0xbe7bd603	-0.24593358
18	0xbe8f69be	-0.28010362
19	0xbe5c0ac2	-0.21488479
20	0xbeb8c3c3	-0.36086854
21	0xbeadf67d	-0.33977118
22	0x3ee80a9f	0.45320603
23	0xbd608460	-0.054813743
24	0xbd6cc288	-0.057802707
25	0x3da5a81c	0.08088705
26	0xbe6f7dcc	-0.23387831
27	0xbeb8cc09	-0.36093166
28	0x3c67f1ef	0.014156803
29	0x3e0f2a9c	0.13981098
30	0xbee1321d	-0.43983546
31	0xbed1af87	-0.4095423
32	0xbc8b849d	-0.017031008
33	0xbe3069bc	-0.17227834
34	0x3e3d25c3	0.18471436
35	0x3d1bfd46	0.038083337
36	0x3dd2874a	0.102797106
37	0xbe863a00	-0.26216125
38	0xbd750b3b	-0.059825163
39	0x3ea2ab15	0.3177115
40	0x3d9775e8	0.07395536
41	0xbe1b9616	-0.15193972
42	0xbe9093ef	-0.28237864
43	0xbdca3d5b	-0.09874984
44	0xbd88dac0	-0.06682348
45	0x3dd55340	0.10416269
46	0xbedaf001	-0.42761233
47	0xbea3f212	-0.32020622
48	0xbe91d628	-0.284837
49	0xbe5baaf3	-0.2145193
50	0x3e0f2f12	0.139828
51	0xbd7fe225	-0.062471528
52	0xbd2c3916	-0.04204663
53	0xbe431252	-0.19049957
54	0x3e38071b	0.1797146
55	0xbe703eb4	-0.2346142
56	0xbccea692	-0.025225911
57	0xbe90ea6a	-0.28303844
58	0xbd9f9d3d	-0.07793663
59	0xbd9d8e27	-0.07693129
60	0xbde6b412	-0.112648144
61	0xbe408f6c	-0.18804711
62	0xbe7de4c5	-0.247943
63	0xbea6750c	-0.32511175
64	0xbd3a4b17	-0.045481768
65	0xbe021f18	-0.12707174
66	0x3d823d47	0.06359344
67	0x3d068e77	0.03285071
68	0xbca767c6	-0.020435225
69	0xbc845860	-0.016155422
70	0x3e37e44f	0.17958187
71	0xbe80fd89	-0.25193432
72	0xbe002b5c	-0.1251654
73	0xbe6fd790	-0.23422074
74	0xbd5ab777	-0.053397622
75	0x3ceb284d	0.02870574
76	0xbcd2001f	-0.025634823
77	0x3c75b02b	0.014995615
78	0xbde9d564	-0.11417654
79	0x3d94d5e2	0.072673574
80	0xbdf4282d	-0.119217254
81	0xbe4b32b7	-0.19843565
82	0xbc2d387d	-0.01057255
83	0xbe5cf43e	-0.21577546
84	0xbd95e8a3	-0.073197626
85	0xbc4705fa	-0.012147421
86	0xbd756e55	-0.059919674
87	0x3e6b319e	0.22968146
88	0xbeae7dca	-0.34080344
89	0xbea39dea	-0.31956416
90	0xbd941d27	-0.07232123
91	0x3e03fdf6	0.12889847
92	0xbe145a58	-0.14487588
93	0xbe71fe19	-0.23632087
94	0xbef585f3	-0.47953758
95	0x3db57112	0.08859457
96	0x3e259c5c	0.16172928
97	0xbdd79f1b	-0.10528394
98	0x3c82fc6c	0.015989505
99	0xbeae8524	-0.34085953
100	0x3e89a58d	0.26884118
101	0xbd950c87	-0.0727778
102	0x3da5182e	0.080612525
103	0xbb60444c	-0.0034220396
104	0x3d78db93	0.060756277
105	0xbdea75d3	-0.114482544
106	0xbdc0eb46	-0.09419875
107	0xbdf2bfb0	-0.11852968
108	0xbd699bf0	-0.05703348
109	0xbe145d5a	-0.14488736
110	0xbe4b659d	-0.19862981
111	0xbe30f1b0	-0.17279696
112	0xbe3d30f2	-0.18475702
113	0x3e034b0b	0.12821595
114	0x3eb7f9c3	0.3593274
115	0x3e54e1a4	0.207892
116	0xbe03280f	-0.1280825
117	0x3d9ba6b2	0.07600154
118	0x3d4cf922	0.05004228
119	0xbd57c7ce	-0.052680783
120	0x3e1f98d8	0.15585649
121	0x3d5e3c26	0.05425658
122	0xbe439f72	-0.19103792
123	0x3c6da02b	0.014503519
124	0x3a37803b	0.0007000004
125	0xbe4d45bb	-0.20046131
126	0xbcb3a65b	-0.02192991
127	0x3e4f6402	0.20252994

bn2.weight f4 [128]
0	0x3f9e05a8	1.2345476
1	0x3f518dd5	0.81857044
2	0x3fa7a7ce	1.3098085
3	0x3f80ad0b	1.0052809
4	0x3f838039	1.0273505
5	0x3f8bd212	1.0923483
6	0x3f6bc83a	0.92102396
7	0x3f853f40	1.0409927
8	0x3fab3285	1.3374792
9	0x3f4a24f0	0.7896261
10	0x3f2ec821	0.6827412
11	0x3f0f3e9c	0.5595491
12	0x3fabdc9c	1.34267
13	0x3f9a994c	1.2078032
14	0x3f862199	1.0479003
15	0x3f681abd	0.906658
16	0x3f2f33b7	0.68438286
17	0x3f77d0f6	0.96803224
18	0x3f835e2d	1.0263115
19	0x3f9a9d10	1.2079182
20	0x3f348a55	0.7052358
21	0x3f4ac07b	0.7919995
22	0x3f80fb2e	1.0076654
23	0x3f8b6e96	1.0893123
24	0x3f1d1b79	0.61370045
25	0x3f332cd4	0.6999028
26	0x3f0e720f	0.5564279
27	0x3f8f3b9b	1.1190065
28	0x3f3a0772	0.7266761
29	0x3f4ea4e2	0.8072034
30	0x3f7e634c	0.99370265
31	0x3fa216f5	1.2663256
32	0x3f201898	0.6253753
33	0x3f425658	0.75913
34	0x3f75208f	0.95752805
35	0x3f3340ae	0.7002057
36	0x3f536a0e	0.825837
37	0x3f7b3c7b	0.9813916
38	0x3ee2222f	0.44166705
39	0x3f7d2ba6	0.9889473
40	0x3f5ff0a4	0.87476563
41	0x3f0c4891	0.5479823
42	0x3f5b9d92	0.8578731
43	0x3f581cba	0.84418833
44	0x3f9a4fe3	1.205563
45	0x3f77134b	0.96513814
46	0x3f31f3c3	0.69512576
47	0x3f3766fa	0.71641505
48	0x3fa5337b	1.2906336
49	0x3f898ad3	1.0745491
50	0x3f817e84	1.0116735
51	0x3fa5029c	1.2891421
52	0x3f8fb1a7	1.122609
53	0x3fc5947e	1.5435941
54	0x3f804699	1.0021545
55	0x3f4f562e	0.80990875
56	0x3f55f772	0.83580697
57	0x3f23d292	0.6399318
58	0x3f6fd858	0.9368949
59	0x3f365459	0.71222454
60	0x3f93e6c1	1.1554796
61	0x3f4d0dc0	0.80099106
62	0x3f7f07f3	0.99621505
63	0x3f263e84	0.6493914
64	0x3f53ad89	0.8268667
65	0x3f5e2f7a	0.86791193
66	0x3f39db1b	0.72599953
67	0x3f5933fb	0.8484494
68	0x3f5ee85c	0.870733
69	0x3f73eda5	0.9528449
70	0x3f7e852e	0.99421966
71	0x3f45fbcd	0.7733734
72	0xbef82f1b	-0.4847344
73	0x3f545295	0.8293851
74	0x3f10afbd	0.56518155
75	0x3f94aafc	1.161468
76	0x3f7d2f47	0.98900265
77	0x3f3503cb	0.7070891
78	0x3f6e46a9	0.9307657
79	0x3f109b84	0.564873
80	0x3f5ee67f	0.8707046
81	0x3f70105d	0.9377497
82	0x3f65f7e8	0.898314
83	0x3f1d5574	0.61458516
84	0x3fdfc979	1.748336
85	0x3f8d40ff	1.103546
86	0x3f06e96d	0.5269993
87	0x3f14f807	0.5819096
88	0x3f8a7f52	1.0820105
89	0x3f268d5b	0.6505944
90	0x3f53f1c4	0.8279078
91	0x3f85940d	1.0435807
92	0x3f095791	0.5364924
93	0x3f5cd30e	0.86259544
94	0x3f3ee1d6	0.7456335
95	0x3f26ee0a	0.6520697
96	0x3f75c395	0.9600156
97	0x3f2cd876	0.67517793
98	0x3f7aac12	0.9791881
99	0x3f4a593f	0.7904243
100	0x3f7ca1b7	0.9868426
101	0x3f237450	0.63849354
102	0x3f146359	0.5796409
103	0x3f8731aa	1.0562031
104	0x3f684ee8	0.907454
105	0x3f78d52a	0.9720026
106	0x3f64970c	0.8929298
107	0x3f50b6a7	0.81528705
108	0x3ec812e3	0.3907691
109	0x3f4dd816	0.80407846
110	0x3f7950f4	0.9738915
111	0x3f1a5f47	0.6030163
112	0x3f48e0ae	0.78467834
113	0x3f6670ed	0.9001606
114	0x3ee1c6ae	0.44096893
115	0x3f9b171c	1.2116427
116	0x3f675e6e	0.90378463
117	0x3f18baa3	0.59659785
118	0x3f7faecf	0.9987611
119	0x3f1ba9d8	0.60806036
120	0x3f7700f4	0.9648583
121	0x3f904fd5	1.1274363
122	0x3fc3b935	1.5290896
123	0x3f852380	1.0401459
124	0x3f0efc38	0.55853605
125	0x3f9957e4	1.1979947
126	0x3f9768d2	1.1828864
127	0x3f718d1e	0.9435595

bn2.bias f4 [128]
0	0x3e2cfb0d	0.16892643
1	0x3e7561cf	0.23963092
2	0xbdb11905	-0.0864735
3	0x3e28bcfa	0.16478339
4	0x3e07abd0	0.13249135
5	0x3db9db47	0.09075027
6	0xbd60e873	-0.05490918
7	0x3d8914bc	0.06693408
8	0x3e85b941	0.261179
9	0x3dc56881	0.09639073
10	0x3db34b1f	0.087545626
11	0xbf94b386	-1.1617286
12	0x3e017d98	0.12645566
13	0xbe78e210	-0.24304986
14	0xbe51825b	-0.20459883
15	0xbdca61d1	-0.09881938
16	0x3e731d19	0.23741569
17	0x3df30cf4	0.11867705
18	0x3e451406	0.1924592
19	0xbdb77d20	-0.089594126
20	0x3d519cc9	0.051174913
21	0xbd3babe5	-0.04581823
22	0xbc3ba906	-0.011453873
23	0xbdc61018	-0.096710384
24	0x3db98dd6	0.09060256
25	0xbe623635	-0.22090991
26	0x3de9b1d0	0.11410868
27	0x3e1f1d09	0.1553842
28	0xbec96cc2	-0.39340788
29	0xbdf993e2	-0.121864095
30	0x3e0b4994	0.13602287
31	0x3e3dc2cc	0.1853134
32	0x3e4f9c63	0.202745
33	0xbe02487a	-0.1272296
34	0x3d510e5b	0.05103908
35	0xbcb256f6	-0.021769982
36	0x3ea3e908	0.32013726
37	0x3e66130b	0.22468202
38	0x3eb99c34	0.36251986
39	0x3dc2ddfc	0.095149964
40	0x3e4b6d8b	0.19866006
41	0xbe69210e	-0.22766516
42	0xbe260d2c	-0.16215962
43	0x3c0a15d9	0.00842806
44	0xbe4060e3	-0.1878696
45	0xbac7f960	-0.0015256815
46	0xbdff4a94	-0.124653965
47	0x3ef33fe2	0.47509676
48	0xbd0593df	-0.032611724
49	0x3ccf586e	0.025310721
50	0x3d5ea525	0.054356713
51	0xbdbd0fa1	-0.092314966
52	0xbd89ce17	-0.06728762
53	0xbaac1aac	-0.0013130507
54	0x3dcb27f1	0.099197276
55	0x3de1bbfb	0.110221826
56	0x3e627916	0.22116503
57	0xb9d89ac2	-0.00041314034
58	0xbda02368	-0.07819253
59	0x3e5c34d2	0.21504524
60	0x3e183bba	0.14866534
61	0xbdf592a8	-0.11990863
62	0x3e70ad53	0.23503618
63	0x3caf5a59	0.021405386
64	0x3e9536ac	0.29143274
65	0x3e0a8f28	0.13531172
66	0x3e82a63e	0.25517458
67	0x3e3eaf9b	0.18621676
68	0xbe60a516	-0.21937975
69	0x3eced41f	0.4039621
70	0xbdba0dd2	-0.09084667
71	0xbd0e18bd	-0.03469156
72	0xbeace57a	-0.33768827
73	0x3cb13798	0.021632954
74	0x3db88f2c	0.09011683
75	0xbeaa2caa	-0.332372
76	0xbdb3c517	-0.08777826
77	0x3e9113b1	0.28335336
78	0x3e96efe8	0.2947991
79	0xbe0dc6ee	-0.13845417
80	0xbe2f8997	-0.1714233
81	0x3d1f296a	0.038857855
82	0xbde1fbbf	-0.11034345
83	0x3d6664b4	0.05624838
84	0x3efad00d	0.48986855
85	0xbda0eaaf	-0.07857262
86	0x3f34de92	0.70652115
87	0xbd8d57fa	-0.06901546
88	0xbdc7fecc	-0.097653955
89	0x3e004431	0.12526013
90	0xbdae4e3f	-0.08511018
91	0xbdbf6990	-0.09346306
92	0xbcc37cdd	-0.02386325
93	0xbe81fdf9	-0.25389078
94	0x3df05e76	0.11736767
95	0x3df88d44	0.12136319
96	0x3e130a1c	0.14359325
97	0x3d3de620	0.046362042
98	0x3d85ce02	0.065334335
99	0x3e917523	0.2840968
100	0x3f1c5e15	0.6108106
101	0x3ea5f226	0.32411307
102	0xbe52ad72	-0.20573977
103	0x3eb8f122	0.3612147
104	0x3d35397e	0.044244282
105	0x3ae50e09	0.0017475496
106	0xbcdd22e5	-0.026994178
107	0xbdd4f7f6	-0.10398857
108	0xbecffe50	-0.40623713
109	0x3d7fa7be	0.06241583
110	0xbc3a2109	-0.011360415
111	0xbd769d14	-0.060208395
112	0xbd351a38	-0.044214457
113	0x3d441ff6	0.047882043
114	0x3dfd4638	0.12366909
115	0x3d478249	0.048708234
116	0x3e758392	0.23975971
117	0x3e14be31	0.14525677
118	0x3d6dad79	0.058026765
119	0xbc039b71	-0.008032666
120	0xbe1b8ad7	-0.15189682
121	0x3eceba0f	0.40376326
122	0xbcd9dccd	-0.026594544
123	0xbe86fdf3	-0.26365623
124	0xbd5540ab	-0.052063625
125	0x3dd53865	0.10411147
126	0x3dd1cea7	0.10244494
127	0x3d36c40a	0.04462055

bn2.running_mean f4 [128]
0	0x3e8157f5	0.25262418
1	0x3ed7f9f8	0.421829
2	0x3dbac06e	0.09118734
3	0x3e9b9b47	0.30391905
4	0x3eaf0189	0.3418086
5	0x3e8d46cb	0.27593073
6	0x3e5563e4	0.20838886
7	0x3e8a229d	0.26979533
8	0x3eb680f9	0.35645273
9	0x3e0a9697	0.13534008
10	0x3e4924af	0.196429
11	0x3f0056f4	0.5013268
12	0x3e18dcb4	0.14927942
13	0x3e38364f	0.17989467
14	0x3ee142e4	0.43996346
15	0x3fa232a1	1.2671701
16	0x3d2d5634	0.042318538
17	0x3e88ba42	0.26704603
18	0x3e217220	0.15766191
19	0x3d4293d9	0.04750428
20	0x3e717152	0.23578385
21	0x3e5f0a12	0.21781185
22	0x3f4af7e1	0.79284483
23	0x3e565310	0.20930123
24	0x3f03fc35	0.5155671
25	0x3e0f523c	0.13996214
26	0x3f0bd1b0	0.5461683
27	0x3ef17da7	0.47166178
28	0x3f6289bd	0.8849142
29	0x3e8999b2	0.26875073
30	0x3da011c3	0.07815888
31	0x3e0a6420	0.13514757
32	0x3ea1bc17	0.31588814
33	0x3e40db6e	0.18833706
34	0x3f96d313	1.1783165
35	0x3f9ef149	1.2417384
36	0x3f1f49bd	0.6222189
37	0x3e16a719	0.1471218
38	0x3de25959	0.11052198
39	0x3f77acdc	0.9674814
40	0x3f88ae12	1.0678122
41	0x3e346ac0	0.17618847
42	0x3ea48079	0.32129267
43	0x3f303a54	0.68839
44	0x3f442914	0.7662518
45	0x3f9a37b2	1.2048247
46	0x3ed8ec95	0.42367998
47	0x3e893b8d	0.26803246
48	0x3f24c41d	0.64361745
49	0x3e37799b	0.17917483
50	0x3f19ad55	0.6003011
51	0x3ecc44bf	0.398962
52	0x3e91ee70	0.28502226
53	0x3e2901e2	0.16504624
54	0x3f2b3158	0.6687217
55	0x3ec2ba9e	0.38033003
56	0x3e7bc7be	0.24587914
57	0x3d887796	0.06663434
58	0x3d2c6f9a	0.04209862
59	0x3f82426c	1.017652
60	0x3e878503	0.26468667
61	0x3e2b1029	0.16705383
62	0x3f0e2ca1	0.5553685
63	0x3ef5cd83	0.48008355
64	0x3f55da53	0.8353626
65	0x3f02f8b9	0.5116077
66	0x3f539017	0.8264174
67	0x3eaf8666	0.34282225
68	0x3e500dff	0.20317839
69	0x3f113726	0.56724775
70	0x3ecf8671	0.40532258
71	0x3e101c28	0.14073241
72	0x3e622167	0.22083054
73	0x3e07a0fc	0.13245004
74	0x3e87fb67	0.26558992
75	0x3f5b64e0	0.857008
76	0x3e8363ff	0.25662228
77	0x3f259383	0.6467821
78	0x3e6c7694	0.23092109
79	0x3f05bfc3	0.5224573
80	0x3e7c63c7	0.24647437
81	0x3e87098e	0.26374477
82	0x3eb97bce	0.36227268
83	0x3dc6cd29	0.097071
84	0x3ee5fc3a	0.44918996
85	0x3f0a9df8	0.5414729
86	0x3e7dff98	0.24804533
87	0x3f64a38f	0.8931207
88	0x3dff9744	0.124800235
89	0x3da5ad13	0.08089652
90	0x3f81a315	1.0127894
91	0x3f6830fc	0.90699744
92	0x3e9fd9ac	0.31220758
93	0x3e144a4f	0.14481471
94	0x3d8fa9f9	0.070148416
95	0x3e1d8fcd	0.15386887
96	0x3f9d0d9e	1.2269781
97	0x3e3d85f0	0.18508124
98	0x3f84d61e	1.0377843
99	0x3eb49c47	0.3527548
100	0x3f728492	0.94733536
101	0x3f56d9ee	0.83926284
102	0x3ee34e12	0.443955
103	0x3ebe2e48	0.37144685
104	0x3f25e204	0.64798
105	0x3e989d08	0.29807305
106	0x3e358333	0.1772583
107	0x3e4f720d	0.2025835
108	0x3f5056c6	0.81382406
109	0x3e8eb3aa	0.27871448
110	0x3e92c4b7	0.28665707
111	0x3e3c745f	0.18403767
112	0x3f0ab103	0.5417635
113	0x3e60ea60	0.21964407
114	0x402c28d1	2.6899912
115	0x3f13ae99	0.5768829
116	0x3e48efb0	0.19622684
117	0x3f153b2b	0.5829341
118	0x3ea5d268	0.3238709
119	0x3f34afe5	0.70580894
120	0x3edb48e0	0.42829037
121	0x3f0b1e15	0.54342777
122	0x3e515e97	0.2044624
123	0x3eb40311	0.3515859
124	0x3e8d2cef	0.27573344
125	0x3d8fe283	0.070256256
126	0x3f02dd48	0.511189
127	0x3f2614ad	0.648753

bn2.running_var f4 [128]
0	0x3e361838	0.17782676
1	0x3ef14389	0.47121838
2	0x3d759ff8	0.05996701
3	0x3e6632d9	0.22480334
4	0x3e60078b	0.21877877
5	0x3e86fe7f	0.2636604
6	0x3e1eaec5	0.15496357
7	0x3e68939d	0.2271256
8	0x3e3141b2	0.17310217
9	0x3dfc69b5	0.123248495
10	0x3e1404b4	0.14454919
11	0x3ef733e4	0.48281777
12	0x3df9d47d	0.12198732
13	0x3e03ab4c	0.12858313
14	0x3e83a9fc	0.25715625
15	0x3f96dfe9	1.1787082
16	0x3c986769	0.018603997
17	0x3e619281	0.22028543
18	0x3dd0efb5	0.102019705
19	0x3cef0c08	0.029180542
20	0x3e124d4b	0.14287297
21	0x3e4a70ea	0.19769636
22	0x3ef991b1	0.48743966
23	0x3e332c24	0.17497307
24	0x3f0e27c6	0.5552944
25	0x3dacd9c8	0.08439976
26	0x3eb67056	0.3563258
27	0x3ee1a554	0.44071448
28	0x3f2ba707	0.6705174
29	0x3e7f3868	0.24923861
30	0x3d82bfe6	0.06384258
31	0x3dbb1100	0.09134102
32	0x3e740fee	0.23834202
33	0x3e3f4e72	0.18682268
34	0x3ea059ec	0.31318605
35	0x3f67d6ed	0.90562326
36	0x3f172a30	0.5904875
37	0x3de6532c	0.112463325
38	0x3db76580	0.089549065
39	0x3f195ce0	0.5990734
40	0x3ec749ed	0.38923588
41	0x3e128c4f	0.14311336
42	0x3e450b1a	0.19242516
43	0x3f79f4d8	0.97639227
44	0x3f2e5646	0.6810039
45	0x3f8f7543	1.120766
46	0x3f00ca44	0.5030863
47	0x3e72d0ba	0.23712435
48	0x3f2e68b3	0.6812851
49	0x3dea9d61	0.11455799
50	0x3f1469d5	0.57973987
51	0x3eacb383	0.33730707
52	0x3e28c5c7	0.16481696
53	0x3e06a771	0.13149811
54	0x3e47231b	0.19446985
55	0x3eb33f0d	0.3500904
56	0x3e1f945f	0.15583943
57	0x3d33f505	0.04393484
58	0x3d475e9f	0.048674222
59	0x3f8ea8c1	1.114525
60	0x3e4bec64	0.19914395
61	0x3df59d51	0.11992896
62	0x3f13efda	0.5778786
63	0x3f1471e1	0.57986265
64	0x3f918448	1.1368494
65	0x3ead7edd	0.33885852
66	0x3ea8a71e	0.3294
67	0x3e7bf2d1	0.24604346
68	0x3e02699a	0.12735596
69	0x3edc1a84	0.4298898
70	0x3e40e0e5	0.1883579
71	0x3da80b0f	0.08205234
72	0x3e0149eb	0.12625854
73	0x3de1d362	0.11026646
74	0x3e061f71	0.13097931
75	0x3f40000f	0.7500009
76	0x3e3137b2	0.17306402
77	0x3f17b872	0.59265816
78	0x3e249aac	0.16074628
79	0x3e875610	0.26432848
80	0x3e249b5a	0.16074887
81	0x3e1be382	0.15223506
82	0x3e10c1fe	0.14136502
83	0x3d7429d4	0.059610203
84	0x3eb76799	0.35821226
85	0x3eb02bce	0.3440842
86	0x3e2bb350	0.16767621
87	0x3eb9a184	0.3625604
88	0x3d867deb	0.06566986
89	0x3d7c7d19	0.06164274
90	0x3f83e8b6	1.0305393
91	0x3f0578c3	0.5213739
92	0x3e8d5bb3	0.27609023
93	0x3e2b8178	0.16748607
94	0x3d290ff5	0.041274983
95	0x3dc53173	0.09628572
96	0x3f15a346	0.5845226
97	0x3dda536b	0.10660442
98	0x3f4002da	0.7500435
99	0x3ee076fd	0.4384078
100	0x3f2b0c64	0.6681578
101	0x3f6c8dd7	0.9240393
102	0x3eb7bdfc	0.35887134
103	0x3ebb6f64	0.36608422
104	0x3e5c5076	0.21515068
105	0x3e92c011	0.2866216
106	0x3e1eb657	0.15499245
107	0x3e046ba9	0.12931694
108	0x3f9335cf	1.1500796
109	0x3e5ea7c5	0.21743686
110	0x3e1ac2c8	0.15113366
111	0x3e11d344	0.14240748
112	0x3f14b026	0.5808128
113	0x3e1612f7	0.14655672
114	0x3fb42513	1.4073814
115	0x3ed18ca1	0.40927604
116	0x3e4474d2	0.19185188
117	0x3ef7493b	0.48298058
118	0x3e3273f1	0.1742704
119	0x3f3448df	0.7042369
120	0x3ea9fabe	0.33199114
121	0x3ebe481c	0.3716439
122	0x3e111abb	0.14170353
123	0x3e2e8b35	0.17045291
124	0x3e841868	0.2579987
125	0x3d316d53	0.04331715
126	0x3ee4c7c0	0.44683647
127	0x3e9b6b6f	0.30355403

fc2.weight f4 [128, 128]
0	0x3edf3e87	0.43602392
1	0x3dc74f0a	0.097318724
2	0x3cc8c4ac	0.024507843
3	0x3dec426f	0.11536109
4	0xbeb05d77	-0.34446308
5	0xbc4e8c33	-0.012606668
6	0xbe045f6d	-0.12927027
7	0xbd9f29bf	-0.07771634
8	0x3e566f37	0.20940863
9	0x3dde44a0	0.10852933
10	0x3dfd2a64	0.12361601
11	0x3e054614	0.13015014
12	0x3c8119a9	0.015759306
13	0x3f01c55b	0.50691766
14	0xbd69a202	-0.05703927
15	0xbd2d2046	-0.042267106
16	0x3eba190e	0.3634724
17	0xbdf0acf6	-0.1175174
18	0xbdef18f2	-0.1167468
19	0x3e1361da	0.14392796
20	0x3e89550a	0.26822692
21	0xbe018c57	-0.12651192
22	0xbe844cab	-0.25839743
23	0xbe62c609	-0.22145857
24	0xbe53b2fd	-0.20673747
25	0xbcaccdbb	-0.021094194
26	0xbe00a43c	-0.1256265
27	0x3eba69ca	0.36408836
28	0xbe171caa	-0.14757028
29	0x3d3849ca	0.044992246
30	0xbe27ba50	-0.16379666
31	0x3ededa5d	0.43525973
32	0xbe33717d	-0.17523761
33	0x3da2600c	0.07928476
34	0x3e4ee7fa	0.2020568
35	0x3b857d9b	0.004073811
36	0x3df89db6	0.12139456
37	0x3e937816	0.28802556
38	0x3dbe4eef	0.09292399
39	0x3e0af70c	0.13570803
40	0xbe891b4d	-0.2677864
41	0xbd003e1d	-0.031309236
42	0xbc823d91	-0.015898498
43	0xbe23e7b9	-0.16006364
44	0xbefb8870	-0.4912753
45	0xbdaa2f97	-0.08309858
46	0xbe3a2798	-0.18179166
47	0xbdf1f7af	-0.1181482
48	0xbd895c72	-0.06707086
49	0xbe199230	-0.14997172
50	0xbd5ab0a8	-0.05339113
51	0xbe35feaa	-0.17772928
52	0xbc46e111	-0.012138621
53	0x3d5848f6	0.052803956
54	0xbdb2e5b7	-0.08735221
55	0x3ecf859b	0.4053162
56	0xbea8fcad	-0.33005276
57	0x3e087d80	0.13329124
58	0x3e25a43c	0.16175932
59	0xbefdcd7d	-0.49570838
60	0x3ca92289	0.02064635
61	0x3dc8802e	0.09790073
62	0xbe4ff7ae	-0.20309326
63	0x3e118b99	0.14213409
64	0xbdf68100	-0.120363235
65	0x3d06d3ed	0.032916952
66	0x3da13576	0.07871525
67	0xbc9c93e4	-0.019113488
68	0x3dc527ad	0.09626708
69	0x3e25ba92	0.16184452
70	0xbe8a4872	-0.27008396
71	0xbca8de45	-0.020613799
72	0x3d17c460	0.037052512
73	0xbe33f85d	-0.17575212
74	0x3ddd3f38	0.10803074
75	0x3da281b0	0.07934892
76	0x3db409d1	0.08790935
77	0x3eab94af	0.33511874
78	0xbe762bd5	-0.24040158
79	0xbcf05471	-0.02933714
80	0x3e084b45	0.13309963
81	0xbcd30892	-0.025760923
82	0x3de4c88c	0.11171064
83	0x3c0a8c51	0.008456306
84	0xbd7b6678	-0.06137702
85	0xbe962e6f	-0.293323
86	0xbdf8ad19	-0.12142391
87	0xbdaaaea4	-0.08334091
88	0xbe844aa2	-0.2583819
89	0xbe0691cf	-0.13141559
90	0x3be86460	0.0070920438
91	0xbe0974c7	-0.13423453
92	0xbe070e70	-0.13189101
93	0x3cf61678	0.03004001
94	0x3d953956	0.072863266
95	0x3d69b3e0	0.057056308
96	0x3e83e047	0.25757048
97	0xbe23b6c5	-0.1598769
98	0xbeacde48	-0.33763337
99	0xbe069912	-0.13144329
100	0xbb37eb3a	-0.002806379
101	0x3d3f5fa8	0.046722084
102	0xbe8461e9	-0.2585595
103	0xbef6500a	-0.4810794
104	0xbe9fb3da	-0.31191903
105	0x3e3d8804	0.18508917
106	0x3ebdd206	0.37074298
107	0x3dfe1ad3	0.1240746
108	0x3e3be587	0.18349276
109	0xbe3a8edb	-0.18218558
110	0x3e1ff98a	0.15622535
111	0x3dc96cb0	0.098351836
112	0xbe348a40	-0.17630863
113	0x3c94cce4	0.018164106
114	0x3d0d280a	0.034462012
115	0xbe070696	-0.13186106
116	0xbf0f3e05	-0.5595401
117	0x3dbc03e3	0.09180429
118	0x3e4defcd	0.20111008
119	0x3d3f64ca	0.04672698
120	0xbd8ac702	-0.06776239
121	0xbe867e27	-0.26268122
122	0x3f29fa92	0.66397965
123	0xbe1085f1	-0.14113595
124	0xbd49db7a	-0.049281575
125	0x3e552f69	0.20818867
126	0x3e5df6d4	0.21676189
127	0x3e58f535	0.21187289
128	0xbe6d2ad5	-0.2316087
129	0xbe90ac15	-0.28256288
130	0x3dfae977	0.12251561
131	0x3e7c704f	0.24652217
132	0x3d039820	0.0321275
133	0xbeb7447e	-0.35794443
134	0x3df7ae74	0.12093821
135	0xbda7b1c1	-0.08188201
136	0xbe22f885	-0.15915115
137	0x3e1960d0	0.14978337
138	0xbf060f32	-0.52366936
139	0x3efa07b6	0.48834008
140	0xbe171e1a	-0.14757577
141	0x3d0335dc	0.032033786
142	0x3e744190	0.23853135
143	0x3eae2d1e	0.34018797
144	0xbdf65c69	-0.120293446
145	0xbe9932ad	-0.29921475
146	0x3d353e71	0.044249002
147	0xbe8a2097	-0.2697799
148	0x3d8f7c9b	0.070061885
149	0x3e4d57f0	0.20053077
150	0x3d88c959	0.06679029
151	0x3e55315d	0.20819612
152	0x3d88351d	0.066507556
153	0x3b852f17	0.0040644514
154	0xbe1b9251	-0.15192534
155	0xbe6df71e	-0.23238799
156	0x3e416316	0.18885455
157	0xbddf58d0	-0.109056115
158	0x3ceee0a6	0.029159855
159	0xbdaaacd7	-0.08333748
160	0xbe1ea44a	-0.15492359
161	0x3de72baa	0.11287625
162	0x3e7f5c77	0.24937616
163	0x3dabbf9e	0.083861575
164	0xbf37deb8	-0.71824217
165	0xbd651b50	-0.05593425
166	0xbe354ac3	-0.177043
167	0xbea0d1d0	-0.31410074
168	0x3e56b450	0.20967221
169	0x3ebc4eff	0.3677902
170	0x3e911e62	0.28343493
171	0xbdeaf1fa	-0.114719346
172	0x3d6645a6	0.056218766
173	0x3e8c810e	0.2744221
174	0x3e33fdd8	0.17577302
175	0xbdbc8131	-0.09204329
176	0x3b9ea443	0.004841359
177	0x3e69372e	0.22774956
178	0xbe5931d1	-0.2121041
179	0xbc0de02f	-0.008659407
180	0x3e62de50	0.22155118
181	0x3deaceea	0.11465247
182	0xbcce3bae	-0.025174942
183	0xbe6da797	-0.23208462
184	0xbe859b5c	-0.26095092
185	0x3ab0a24c	0.0013476103
186	0xba8568d4	-0.0010178336
187	0xbeef9959	-0.46796682
188	0x3c92e977	0.01793359
189	0xbd54b423	-0.051929604
190	0x3e7c52f9	0.24641027
191	0xbd935f93	-0.07195964
192	0xbef99238	-0.4874437
193	0xbe772550	-0.24135327
194	0xbe7f5010	-0.24932885
195	0xbf055a19	-0.52090603
196	0xbd89a271	-0.06720436
197	0x3d8a3a07	0.06749349
198	0xbd7c27aa	-0.061561264
199	0xbe489f4e	-0.1959202
200	0x3b2e51ea	0.0026599118
201	0x3e0f3774	0.13985997
202	0x3eb62ef8	0.3558271
203	0x3e58640a	0.21131912
204	0x3da4860c	0.0803338
205	0xbf3bce56	-0.7336172
206	0xbde1d245	-0.11026434
207	0x3eb4d625	0.3531963
208	0x3c4f79a9	0.012663283
209	0x3e460b9a	0.19340363
210	0x3e1f51c8	0.15558541
211	0xbe4a7d2a	-0.19774309
212	0xbd447add	-0.047968734
213	0x3dc0c873	0.09413233
214	0xbf18df6e	-0.59715927
215	0xbda70dcd	-0.08156929
216	0xbe48bb78	-0.19602764
217	0x3e844816	0.25836247
218	0xbcc1d3f9	-0.023660647
219	0x3e98a21e	0.29811186
220	0xbe80095c	-0.2500714
221	0x3e286132	0.16443327
222	0x3edb3e3d	0.42820922
223	0x3cdc08ae	0.026859608
224	0xbc88243a	-0.016618837
225	0xbe268a58	-0.16263711
226	0x3e847a66	0.25874633
227	0xbd31259b	-0.043248754
228	0xbe13d917	-0.14438282
229	0x3de369df	0.11104178
230	0xbc0e7f20	-0.008697301
231	0x3e25a57a	0.16176406
232	0xbe7dcadd	-0.24784417
233	0xbb43aa24	-0.002985605
234	0x3e3920cb	0.18078916
235	0x3e1ce3bc	0.15321249
236	0x3e82485a	0.25445825
237	0x3dd1d7f3	0.10246267
238	0x3e8241b0	0.2544074
239	0x3c5a9af0	0.013342604
240	0x3e59ce8c	0.21270198
241	0xbde89a90	-0.113576055
242	0x3d7c7e1d	0.06164371
243	0xbe6faf52	-0.23406723
244	0xbe244f17	-0.16045795
245	0xbd6747dd	-0.05646502
246	0x3e864b90	0.26229525
247	0x3e2d16cd	0.16903229
248	0x3da8013b	0.0820336
249	0x3e9c196a	0.3048814
250	0x3d0c850f	0.034306582
251	0x3eac63ad	0.33669797
252	0x3e1bf2df	0.15229367
253	0xbda37ddb	-0.079829894
254	0x3c58556e	0.013203962
255	0xbcba18c6	-0.022716891

fc2.bias f4 [128]
0	0xbe140626	-0.1445547
1	0xbefefac8	-0.49800706
2	0x3cd18a28	0.025578573
3	0xbe277528	-0.16353285
4	0xbd833828	-0.06407195
5	0xbea91f74	-0.3303181
6	0x3ca77cde	0.020445284
7	0xbd3596de	-0.04433333
8	0xbded154e	-0.11576329
9	0x3e3d8f82	0.18511775
10	0xbc54317f	-0.012951254
11	0xbd5ca38e	-0.053866915
12	0x3e139493	0.14412145
13	0xbede9ee5	-0.43480602
14	0xbe77b650	-0.2419064
15	0xbe6d0061	-0.23144676
16	0x3cbd91aa	0.023140747
17	0xbe09ad8d	-0.1344511
18	0x3e3133d2	0.17304924
19	0xbe326aac	-0.17423505
20	0x3e089ef8	0.13341892
21	0xbe923d51	-0.28562406
22	0xbdeaf082	-0.114716545
23	0xbdb74476	-0.08948605
24	0xbe3e18af	-0.18564104
25	0xbf12278c	-0.57091594
26	0xbead40be	-0.33838457
27	0xbdc3f652	-0.09568466
28	0xbda0f84d	-0.078598596
29	0x3d57752b	0.052601974
30	0x3e244e8b	0.16045587
31	0x3d95259d	0.07282565
32	0xbe6fa7a2	-0.2340379
33	0xbe26b0b4	-0.16278344
34	0x3d2af13c	0.041733965
35	0x3d0bcb5b	0.03412948
36	0x3b77ac40	0.0037791878
37	0xbe28572f	-0.16439508
38	0xbdefaed2	-0.11703266
39	0xbe1e56fc	-0.1546287
40	0xbe115174	-0.14191228
41	0xbe9d7116	-0.3075034
42	0xbe49a01b	-0.19689982
43	0x3dd3a60c	0.10334405
44	0xbeab879d	-0.33501902
45	0xbe89b4c3	-0.26895723
46	0xbd8ccf16	-0.06875436
47	0xbed08a85	-0.40730682
48	0xbe13b034	-0.14422685
49	0x3c3349ad	0.010942859
50	0xbe08ea97	-0.13370739
51	0xbec144f3	-0.37747917
52	0xbe5c52cb	-0.21515958
53	0xbe884bbf	-0.2662029
54	0xbc63c0ec	-0.013900977
55	0xbd88fd92	-0.0668899
56	0xbe6e485a	-0.23269787
57	0x3cd36e9d	0.02580958
58	0xbe36b07e	-0.17840764
59	0xbe8f68a0	-0.2800951
60	0xbb443ac5	-0.0029942256
61	0xbe573919	-0.21017875
62	0xbd0cbe60	-0.034361243
63	0xbea3a384	-0.3196069
64	0xbe13dc23	-0.14439444
65	0xbea420d8	-0.32056308
66	0xbd82425c	-0.06360313
67	0x3d38ee89	0.04514936
68	0xbdb15d37	-0.086603574
69	0xbdc407ad	-0.095717765
70	0xbe066c62	-0.13127282
71	0xbdccd319	-0.10001201
72	0xbe49474c	-0.19656104
73	0xbec9df95	-0.39428392
74	0xbe91a95c	-0.28449523
75	0xbe08d7fb	-0.1336364
76	0x3de3d5b4	0.11124745
77	0xbe9f3cc3	-0.31101045
78	0x3b92f69e	0.0044849655
79	0xbdd5efc7	-0.104461245
80	0xbe2a122b	-0.16608493
81	0xbf0df5f2	-0.5545341
82	0xbe175798	-0.14779508
83	0xbe1a04b7	-0.15040861
84	0xbe5f5f31	-0.21813656
85	0xbc16f7e8	-0.009214379
86	0xbe996b8c	-0.29964864
87	0xbd0269f8	-0.03183934
88	0x3ddc6dfe	0.10763167
89	0xbeccbf9d	-0.3998994
90	0x3b632e1d	0.0034664937
91	0xbe2033ed	-0.15644808
92	0x3c3e9865	0.011633013
93	0xbee8d4b1	-0.4547477
94	0x3d0cb766	0.03435459
95	0x3e9c80fe	0.30567163
96	0xbf0250ed	-0.5090473
97	0xbe04fa5c	-0.1298613
98	0xbd844d14	-0.06460014
99	0xbe4e12ab	-0.20124309
100	0xbe4d8e6b	-0.2007386
101	0xbd70abea	-0.0587577
102	0x3def1e19	0.116756625
103	0xbe88f20d	-0.2674717
104	0xbd7d2ef6	-0.061812364
105	0xbed9bff1	-0.42529252
106	0xbdefaf7a	-0.117033914
107	0x3e0f77aa	0.14010492
108	0xbe87f5f1	-0.26554826
109	0xbe550212	-0.20801571
110	0xbdae42be	-0.08508824
111	0xbe0cdf55	-0.1375707
112	0xbe14cfac	-0.14532346
113	0xbe1bd887	-0.15219317
114	0xbf18ca03	-0.59683245
115	0x3d3b0037	0.0456545
116	0xbe4ed80d	-0.20199604
117	0xbd740407	-0.059574153
118	0x3dd67ac5	0.10472635
119	0x3b2511ae	0.002518754
120	0xbe921974	-0.28535044
121	0xbc48f87f	-0.012266277
122	0xbe906477	-0.2820165
123	0xbe7f80e0	-0.24951506
124	0x3d318f31	0.04334945
125	0xbd71a1c9	-0.05899218
126	0xbe7d06e2	-0.24709657
127	0x3d075f8d	0.03305011

bn3.weight f4 [128]
0	0x3f56dba2	0.83928883
1	0x3e831da0	0.2560854
2	0x3ec74658	0.38920856
3	0x3f3d5286	0.73954046
4	0x3f6d318f	0.92653745
5	0x3d698b90	0.057017863
6	0x3f513f91	0.8173762
7	0x3f6922c4	0.91068673
8	0x3daaab90	0.08333504
9	0x3ed778d2	0.42084366
10	0x3f7a5ad8	0.97794867
11	0x3e6a67c8	0.22891152
12	0x3f45f0a7	0.7732033
13	0x3e5c46b8	0.21511352
14	0x3cb9d7e0	0.022685945
15	0x3f745cfa	0.9545437
16	0x3e007e70	0.12548232
17	0x3f7b9c30	0.982852
18	0x3ec87ea0	0.39159107
19	0x3edc747e	0.43057626
20	0x3f627643	0.88461703
21	0x3f756f57	0.95873016
22	0x3f457035	0.7712434
23	0x3f215bc0	0.63030624
24	0x3f4901c2	0.7851831
25	0x3f1610c0	0.5861931
26	0x3f2f8589	0.68563133
27	0x3f66c88e	0.9014977
28	0x3f7c88ef	0.98646444
29	0x3f1dc2c1	0.61625296
30	0x3f69f379	0.91387135
31	0x3e969706	0.29412097
32	0x3f5586a0	0.83408546
33	0x3d5f7cb0	0.05456227
34	0x3f20aaf9	0.62760884
35	0x3cb48be0	0.022039354
36	0x3f202c08	0.62567186
37	0x3ea8a196	0.3293578
38	0x3ed4f04c	0.41589582
39	0x3edde790	0.4334073
40	0x3d9952c0	0.074864864
41	0x3f0063b2	0.5015212
42	0x3f3ea3f7	0.7446894
43	0x3f6b28df	0.9185924
44	0x3e496c30	0.19670177
45	0x3e85db86	0.26144046
46	0x3ebc479a	0.36773378
47	0x3ecc0096	0.39844197
48	0x3f07ed66	0.53096616
49	0x3d675f80	0.05648756
50	0x3ed3652c	0.41288126
51	0x3f75c23b	0.959995
52	0x3f44d94d	0.76894075
53	0x3f293f6a	0.6611239
54	0x3f3dd00c	0.7414558
55	0x3ee4e75e	0.4470777
56	0x3d8dec90	0.06929886
57	0x3e1ac93c	0.15115827
58	0x3e89be2c	0.26902902
59	0x3e923780	0.28557968
60	0x3e954b94	0.29159224
61	0x3dc705e8	0.097179234
62	0x3f223734	0.63365483
63	0x3f4c5b62	0.7982694
64	0x3ed80f56	0.421992
65	0x3f4d0cf6	0.800979
66	0x3ebcf87a	0.36908323
67	0x3ec72faa	0.38903552
68	0x3f13f13c	0.5778997
69	0x3e8ac7bc	0.2710551
70	0x3f679119	0.90455776
71	0x3f479104	0.7795565
72	0x3e85e18e	0.26148647
73	0x3edf0c0c	0.4356388
74	0x3ea9f63e	0.3319568
75	0x3ea509e2	0.32234102
76	0x3ee82ab0	0.45345068
77	0x3dce33e0	0.10068488
78	0x3f64c139	0.89357334
79	0x3eb0dcee	0.34543556
80	0x3f611eb6	0.87937486
81	0x3f5afe0e	0.85543907
82	0x3f27e9c7	0.6559109
83	0x3f378e4f	0.7170152
84	0x3f510536	0.81648576
85	0x3f4a2a56	0.7897085
86	0x3f3d8527	0.740313
87	0x3f5acc8c	0.85468364
88	0x3eda6772	0.42657048
89	0x3f14fc6e	0.5819768
90	0x3f6845d3	0.90731543
91	0x3f6556b2	0.8958541
92	0x3d627280	0.055284977
93	0x3f69656a	0.9117037
94	0x3f1502df	0.58207506
95	0x3f40e56c	0.7535007
96	0x3e87c118	0.26514506
97	0x3f235f4e	0.638173
98	0x3f721ad3	0.9457218
99	0x3eaed024	0.34143174
100	0x3f05d2ae	0.52274597
101	0x3e2d0ec0	0.16900158
102	0x3ca90000	0.020629883
103	0x3e9eac9e	0.3099107
104	0x3deaec18	0.114708126
105	0x3eb892ea	0.36049587
106	0x3ec72e10	0.3890233
107	0x3f1296e6	0.572615
108	0x3d333880	0.043755054
109	0x3f1171d4	0.5681431
110	0x3e8467a0	0.2586031
111	0x3f18d4d0	0.59699726
112	0x3e7f3820	0.24923754
113	0x3ca28040	0.019836545
114	0x3f029695	0.5101102
115	0x3f260f53	0.6486713
116	0x3e6ea074	0.23303396
117	0x3f73f43d	0.95294553
118	0x3d979460	0.07401347
119	0x3e840eba	0.25792485
120	0x3ed31ae8	0.41231465
121	0x3f4c4cd1	0.7980471
122	0x3bac7a80	0.0052636266
123	0x3f354dc6	0.708218
124	0x3f5c3325	0.8601554
125	0x3f29fa20	0.66397285
126	0x3f2d5e36	0.6772188
127	0x3f47433f	0.77836984

bn3.bias f4 [128]
0	0x00000000	0.0
1	0x00000000	0.0
2	0x00000000	0.0
3	0x00000000	0.0
4	0x00000000	0.0
5	0x00000000	0.0
6	0x00000000	0.0
7	0x00000000	0.0
8	0x00000000	0.0
9	0x00000000	0.0
10	0x00000000	0.0
11	0x00000000	0.0
12	0x00000000	0.0
13	0x00000000	0.0
14	0x00000000	0.0
15	0x00000000	0.0
16	0x00000000	0.0
17	0x00000000	0.0
18	0x00000000	0.0
19	0x00000000	0.0
20	0x00000000	0.0
21	0x00000000	0.0
22	0x00000000	0.0
23	0x00000000	0.0
24	0x00000000	0.0
25	0x00000000	0.0
26	0x00000000	0.0
27	0x00000000	0.0
28	0x00000000	0.0
29	0x00000000	0.0
30	0x00000000	0.0
31	0x00000000	0.0
32	0x00000000	0.0
33	0x00000000	0.0
34	0x00000000	0.0
35	0x00000000	0.0
36	0x00000000	0.0
37	0x00000000	0.0
38	0x00000000	0.0
39	0x00000000	0.0
40	0x00000000	0.0
41	0x00000000	0.0
42	0x00000000	0.0
43	0x00000000	0.0
44	0x00000000	0.0
45	0x00000000	0.0
46	0x00000000	0.0
47	0x00000000	0.0
48	0x00000000	0.0
49	0x00000000	0.0
50	0x00000000	0.0
51	0x00000000	0.0
52	0x00000000	0.0
53	0x00000000	0.0
54	0x00000000	0.0
55	0x00000000	0.0
56	0x00000000	0.0
57	0x00000000	0.0
58	0x00000000	0.0
59	0x00000000	0.0
60	0x00000000	0.0
61	0x00000000	0.0
62	0x00000000	0.0
63	0x00000000	0.0
64	0x00000000	0.0
65	0x00000000	0.0
66	0x00000000	0.0
67	0x00000000	0.0
68	0x00000000	0.0
69	0x00000000	0.0
70	0x00000000	0.0
71	0x00000000	0.0
72	0x00000000	0.0
73	0x00000000	0.0
74	0x00000000	0.0
75	0x00000000	0.0
76	0x00000000	0.0
77	0x00000000	0.0
78	0x00000000	0.0
79	0x00000000	0.0
80	0x00000000	0.0
81	0x00000000	0.0
82	0x00000000	0.0
83	0x00000000	0.0
84	0x00000000	0.0
85	0x00000000	0.0
86	0x00000000	0.0
87	0x00000000	0.0
88	0x00000000	0.0
89	0x00000000	0.0
90	0x00000000	0.0
91	0x00000000	0.0
92	0x00000000	0.0
93	0x00000000	0.0
94	0x00000000	0.0
95	0x00000000	0.0
96	0x00000000	0.0
97	0x00000000	0.0
98	0x00000000	0.0
99	0x00000000	0.0
100	0x00000000	0.0
101	0x00000000	0.0
102	0x00000000	0.0
103	0x00000000	0.0
104	0x00000000	0.0
105	0x00000000	0.0
106	0x00000000	0.0
107	0x00000000	0.0
108	0x00000000	0.0
109	0x00000000	0.0
110	0x00000000	0.0
111	0x00000000	0.0
112	0x00000000	0.0
113	0x00000000	0.0
114	0x00000000	0.0
115	0x00000000	0.0
116	0x00000000	0.0
117	0x00000000	0.0
118	0x00000000	0.0
119	0x00000000	0.0
120	0x00000000	0.0
121	0x00000000	0.0
122	0x00000000	0.0
123	0x00000000	0.0
124	0x00000000	0.0
125	0x00000000	0.0
126	0x00000000	0.0
127	0x00000000	0.0

bn3.running_mean f4 [128]
0	0x00000000	0.0
1	0x00000000	0.0
2	0x00000000	0.0
3	0x00000000	0.0
4	0x00000000	0.0
5	0x00000000	0.0
6	0x00000000	0.0
7	0x00000000	0.0
8	0x00000000	0.0
9	0x00000000	0.0
10	0x00000000	0.0
11	0x00000000	0.0
12	0x00000000	0.0
13	0x00000000	0.0
14	0x00000000	0.0
15	0x00000000	0.0
16	0x00000000	0.0
17	0x00000000	0.0
18	0x00000000	0.0
19	0x00000000	0.0
20	0x00000000	0.0
21	0x00000000	0.0
22	0x00000000	0.0
23	0x00000000	0.0
24	0x00000000	0.0
25	0x00000000	0.0
26	0x00000000	0.0
27	0x00000000	0.0
28	0x00000000	0.0
29	0x00000000	0.0
30	0x00000000	0.0
31	0x00000000	0.0
32	0x00000000	0.0
33	0x00000000	0.0
34	0x00000000	0.0
35	0x00000000	0.0
36	0x00000000	0.0
37	0x00000000	0.0
38	0x00000000	0.0
39	0x00000000	0.0
40	0x00000000	0.0
41	0x00000000	0.0
42	0x00000000	0.0
43	0x00000000	0.0
44	0x00000000	0.0
45	0x00000000	0.0
46	0x00000000	0.0
47	0x00000000	0.0
48	0x00000000	0.0
49	0x00000000	0.0
50	0x00000000	0.0
51	0x00000000	0.0
52	0x00000000	0.0
53	0x00000000	0.0
54	0x00000000	0.0
55	0x00000000	0.0
56	0x00000000	0.0
57	0x00000000	0.0
58	0x00000000	0.0
59	0x00000000	0.0
60	0x00000000	0.0
61	0x00000000	0.0
62	0x00000000	0.0
63	0x00000000	0.0
64	0x00000000	0.0
65	0x00000000	0.0
66	0x00000000	0.0
67	0x00000000	0.0
68	0x00000000	0.0
69	0x00000000	0.0
70	0x00000000	0.0
71	0x00000000	0.0
72	0x00000000	0.0
73	0x00000000	0.0
74	0x00000000	0.0
75	0x00000000	0.0
76	0x00000000	0.0
77	0x00000000	0.0
78	0x00000000	0.0
79	0x00000000	0.0
80	0x00000000	0.0
81	0x00000000	0.0
82	0x00000000	0.0
83	0x00000000	0.0
84	0x00000000	0.0
85	0x00000000	0.0
86	0x00000000	0.0
87	0x00000000	0.0
88	0x00000000	0.0
89	0x00000000	0.0
90	0x00000000	0.0
91	0x00000000	0.0
92	0x00000000	0.0
93	0x00000000	0.0
94	0x00000000	0.0
95	0x00000000	0.0
96	0x00000000	0.0
97	0x00000000	0.0
98	0x00000000	0.0
99	0x00000000	0.0
100	0x00000000	0.0
101	0x00000000	0.0
102	0x00000000	0.0
103	0x00000000	0.0
104	0x00000000	0.0
105	0x00000000	0.0
106	0x00000000	0.0
107	0x00000000	0.0
108	0x00000000	0.0
109	0x00000000	0.0
110	0x00000000	0.0
111	0x00000000	0.0
112	0x00000000	0.0
113	0x00000000	0.0
114	0x00000000	0.0
115	0x00000000	0.0
116	0x00000000	0.0
117	0x00000000	0.0
118	0x00000000	0.0
119	0x00000000	0.0
120	0x00000000	0.0
121	0x00000000	0.0
122	0x00000000	0.0
123	0x00000000	0.0
124	0x00000000	0.0
125	0x00000000	0.0
126	0x00000000	0.0
127	0x00000000	0.0

bn3.running_var f4 [128]
0	0x3f800000	1.0
1	0x3f800000	1.0
2	0x3f800000	1.0
3	0x3f800000	1.0
4	0x3f800000	1.0
5	0x3f800000	1.0
6	0x3f800000	1.0
7	0x3f800000	1.0
8	0x3f800000	1.0
9	0x3f800000	1.0
10	0x3f800000	1.0
11	0x3f800000	1.0
12	0x3f800000	1.0
13	0x3f800000	1.0
14	0x3f800000	1.0
15	0x3f800000	1.0
16	0x3f800000	1.0
17	0x3f800000	1.0
18	0x3f800000	1.0
19	0x3f800000	1.0
20	0x3f800000	1.0
21	0x3f800000	1.0
22	0x3f800000	1.0
23	0x3f800000	1.0
24	0x3f800000	1.0
25	0x3f800000	1.0
26	0x3f800000	1.0
27	0x3f800000	1.0
28	0x3f800000	1.0
29	0x3f800000	1.0
30	0x3f800000	1.0
31	0x3f800000	1.0
32	0x3f800000	1.0
33	0x3f800000	1.0
34	0x3f800000	1.0
35	0x3f800000	1.0
36	0x3f800000	1.0
37	0x3f800000	1.0
38	0x3f800000	1.0
39	0x3f800000	1.0
40	0x3f800000	1.0
41	0x3f800000	1.0
42	0x3f800000	1.0
43	0x3f800000	1.0
44	0x3f800000	1.0
45	0x3f800000	1.0
46	0x3f800000	1.0
47	0x3f800000	1.0
48	0x3f800000	1.0
49	0x3f800000	1.0
50	0x3f800000	1.0
51	0x3f800000	1.0
52	0x3f800000	1.0
53	0x3f800000	1.0
54	0x3f800000	1.0
55	0x3f800000	1.0
56	0x3f800000	1.0
57	0x3f800000	1.0
58	0x3f800000	1.0
59	0x3f800000	1.0
60	0x3f800000	1.0
61	0x3f800000	1.0
62	0x3f800000	1.0
63	0x3f800000	1.0
64	0x3f800000	1.0
65	0x3f800000	1.0
66	0x3f800000	1.0
67	0x3f800000	1.0
68	0x3f800000	1.0
69	0x3f800000	1.0
70	0x3f800000	1.0
71	0x3f800000	1.0
72	0x3f800000	1.0
73	0x3f800000	1.0
74	0x3f800000	1.0
75	0x3f800000	1.0
76	0x3f800000	1.0
77	0x3f800000	1.0
78	0x3f800000	1.0
79	0x3f800000	1.0
80	0x3f800000	1.0
81	0x3f800000	1.0
82	0x3f800000	1.0
83	0x3f800000	1.0
84	0x3f800000	1.0
85	0x3f800000	1.0
86	0x3f800000	1.0
87	0x3f800000	1.0
88	0x3f800000	1.0
89	0x3f800000	1.0
90	0x3f800000	1.0
91	0x3f800000	1.0
92	0x3f800000	1.0
93	0x3f800000	1.0
94	0x3f800000	1.0
95	0x3f800000	1.0
96	0x3f800000	1.0
97	0x3f800000	1.0
98	0x3f800000	1.0
99	0x3f800000	1.0
100	0x3f800000	1.0
101	0x3f800000	1.0
102	0x3f800000	1.0
103	0x3f800000	1.0
104	0x3f800000	1.0
105	0x3f800000	1.0
106	0x3f800000	1.0
107	0x3f800000	1.0
108	0x3f800000	1.0
109	0x3f800000	1.0
110	0x3f800000	1.0
111	0x3f800000	1.0
112	0x3f800000	1.0
113	0x3f800000	1.0
114	0x3f800000	1.0
115	0x3f800000	1.0
116	0x3f800000	1.0
117	0x3f800000	1.0
118	0x3f800000	1.0
119	0x3f800000	1.0
120	0x3f800000	1.0
121	0x3f800000	1.0
122	0x3f800000	1.0
123	0x3f800000	1.0
124	0x3f800000	1.0
125	0x3f800000	1.0
126	0x3f800000	1.0
127	0x3f800000	1.0
