checkpoint_critic.pth (torch_old, 89507 bytes, 9 tensors)

fc1.weight f4 [128, 33]
00000000: bf26 203e 532a 63bd 0213 bcbd 6218 16bf
00000010: 628d 7b3d ce41 e33e b902 fe3d be72 6abc
00000020: 294a 293e 3ea3 243e 360f 603d 685c 263c
00000030: 4ec4 943d 3414 55bc c569 cdbc 8c09 fa3c
00000040: 8db6 21bf 1475 dcbe 7f6a af3e 2519 56bd
00000050: 0a1b a7bc d3c0 24bd 4ba2 a23d e16d 183d
00000060: f6c4 513d 9aeb 46bd 04df 98bd dde6 2a3e
00000070: 2e23 0bbe a037 703b caf1 b2bd e188 0dbd
00000080: 32d1 a33d 99aa 173d 9f4b 9fb9 3bea a7bc
00000090: 3e1d c63e 7532 843e edd5 f43d 6728 583e
000000a0: 5248 813b b0c5 0fbd 91fe 843d 0424 813b
000000b0: 1948 42bc e207 7039 8437 28bc 2d29 473c
000000c0: 7f80 cbbc 9e00 dd3c fe82 ae3d f207 f4bd
000000d0: 6fca 96bd cfad ccba f039 08ba 1b64 3b3b
000000e0: eae3 97bc ba5a e63a a5f1 1b3c d20e 13bd
000000f0: 53a3 2a3e 4fbd 9c3d 01ac 39bd dffb 0ebe
00000100: 762c 98bd 7f43 c13f c045 ad3d a5dd c1bc
00000110: 793f 0ebd 8e83 0dbe 1314 b93e 372c 9e3e
00000120: 062e 93bd 35b7 1a3b 2266 a23d 778d 80bd
00000130: a149 ecbb c804 ccbb d167 a2bc 9ca1 e8bd
00000140: 2595 323d 64e3 473c ec1e df3d dfdd d0bb
00000150: 2e98 3c3b ead6 49bd 44ba 133b 1531 f239
00000160: fd78 273d 547c 033d 3624 f7bc 2435 15bd
00000170: ad2b 833d 843a 0a3e 1bc4 d2bd 87a2 803d
00000180: a8a4 4bbe 909e 0abc 9609 a2bf d2ff 253e
00000190: 2212 fbbd daab e9bc 2d1b 993e 8b83 4cbe
000001a0: b44b ebbe 1dd1 1c3e 5d0b 793b 8b8c 60be
000001b0: f681 8abc 4237 323d 307f 80bc 0449 513b
000001c0: 0b57 9cbd 9c67 103d a669 a1bd 40b5 a3be
000001d0: b17e 183e 3895 8e3d 3b55 81be a75c 79bd
000001e0: 6a3f 80bc f562 523c 0ebb a3bd 36c3 95bc
000001f0: b2bd cb3d 7cc4 a3bd 47ff a03e e41a 4d3e
00000200: 810f 1dbd 8f6a bcbe d5ad 38bd f943 88bd
00000210: ae18 aebd caa0 eb3d bd4c 463d 4d71 ae3e
00000220: 2d15 863d 596d a33d 4d19 423e e035 62bd
00000230: 2b60 52bc 73ee a2bd 59b2 a63b f811 debc
00000240: 2fef 83bc 5043 7abd 4dfd 3ebe 9088 82bd
00000250: 0d9d 6abe 59a3 0dbf 13c6 223f 4c89 bf3e
00000260: 3510 cf3b 408c fabc c982 60bd 127f ed3b
00000270: e6aa 1abd 7563 33bd 90b5 1d3e 906c f13d
00000280: 99e6 db3c 80cd 5eba 7505 03be 289b 5e3c
00000290: 58f4 023f 4265 723e 68d3 64bd bb6c 7a3d
000002a0: bf87 54bd 0715 253f f520 ecbd 03a7 68bd
000002b0: 8321 a33d 59d9 283d d709 453e 6574 c1bd
000002c0: 5f2f c53c 2213 773d 42d6 bfbe 5509 aabb
000002d0: 48d0 053c 561b 903d 4d12 95bc e5c9 343e
000002e0: f721 9abd c2bb d83d 0915 933d 3e71 043d
000002f0: c08c a2bd 95fa 213c 25fd d4bd bdbc 92bd
00000300: 6b88 563e 7599 753d 61c5 923d 880e 57be
00000310: 74f6 82bd b231 203e 3226 083e 2791 aa3d
00000320: 7ca8 d8bd 5f9c 3e3e f299 97be 9195 d53e
00000330: eb01 b13e b0ff fdbb 1ca4 99bd fe12 043e
00000340: 6971 4b3d a58c 813c eecf 5abc 7824 5cbe
00000350: 4960 ecbd 4b12 983c 1113 34be 8305 2bbe
00000360: 3059 bbbe 558b 493e 0459 edbc 5c71 8ebc
00000370: c053 c3bd f783 abbd fa36 783c c689 983d
00000380: a933 103e e9b3 7dbd a21f 43bd cff8 1fbd
00000390: d939 1ebc 90a9 913c 64a9 29bf 2a2f bd3c
000003a0: 1bfc c6bc 6a8e 033d d7ba 87bd 51c0 353d
000003b0: 88ca fb3d 48ad 03be 3f52 35bb d19b 24bd
000003c0: 7ddc ca3c e849 32bb 973e e73b 7554 4c3c
000003d0: db0a a43b 3fbd a4ba b2ea 29bb 0d58 2d3d
000003e0: 59bc b83c 6e7c 293d dd7b 903c d096 4c3b
000003f0: 99ba 4c3c 2cf7 823c 7643 1aba 601a 20bc
0.1563978 -0.055460285 -0.09183313 -0.58630955 0.06141413 0.44386142 0.12402863 -0.014309583
0.16532196 0.16077897 0.054702006 0.010153867 0.07264005 -0.013005305 -0.025074849 0.03052213
-0.63169175 -0.43058074 0.34260938 -0.052270073 -0.020398635 -0.040222954 0.07941111 0.037214164
0.051213227 -0.04856453 -0.07464412 0.1668963 -0.13587639 0.0036654249 -0.08737524 -0.034554366
0.07998885 0.03702793 -0.00030383185 -0.020497432 0.38694185 0.25819746 0.119548656 0.21109162
0.003945389 -0.03510064 0.06493867 0.003941061 -0.01185801 0.0002289112 -0.010267142 0.012155813
-0.024841545 0.026977833 0.085210785 -0.11915578 -0.0736283 -0.0015615764 -0.00051966216 0.0028593603
-0.018541295 0.0017574646 0.009518062 -0.035902806 0.16663866 0.07653295 -0.04533005 -0.13963269
-0.07430355 1.5098723 0.084605694 -0.023665259 -0.0347285 -0.13819715 0.36148128 0.30893108
-0.07186513 0.0023607735 0.079296365 -0.06276982 -0.0072109257 -0.006226156 -0.019824894 -0.113589495
0.043599267 0.01220021 0.1089457 -0.0063741053 0.002877723 -0.049277224 0.0022541443 0.00046194406
0.040886868 0.03210099 -0.030168634 -0.036427632 0.06404815 0.13498884 -0.102913104 0.06281
-0.1988703 -0.008460656 -1.2659175 0.16210869 -0.12259318 -0.028524328 0.29903546 -0.19972055
-0.45956194 0.15314145 0.0038001158 -0.21928613 -0.016907673 0.04350973 -0.015685648 0.003193439
-0.0763379 0.03525506 -0.07881479 -0.3197422 0.14892079 0.06962055 -0.25260338 -0.060879376
-0.015655238 0.012840976 -0.07994662 -0.01828156 0.09948291 -0.07996461 0.3144476 0.20029789
-0.038344864 -0.36800048 -0.045087654 -0.0665359 -0.08500801 0.115052775 0.048413027 0.34070817
0.06547008 0.07979841 0.18954964 -0.05522716 -0.012840311 -0.07955637 0.0050871787 -0.027108178
-0.016105263 -0.06109935 -0.18651314 -0.063737035 -0.22911473 -0.55327374 0.6358349 0.37409437
0.0063190707 -0.030584455 -0.054812226 0.007247814 -0.037760638 -0.04379602 0.15401292 0.11788285
0.026843356 -0.000849925 -0.1279505 0.013586797 0.5115409 0.2367144 -0.055865675 0.06113885
-0.05188727 0.6448521 -0.115297236 -0.0567999 0.07965376 0.041222904 0.19242035 -0.094460286
0.02407044 0.06032098 -0.37468153 -0.0051891007 0.008167334 0.07036464 -0.018197203 0.17655142
-0.075260095 0.10582687 0.071817465 0.03233456 -0.07937002 0.009886404 -0.10399846 -0.07164905
0.20950477 0.0599608 0.07166553 -0.21001637 -0.063946635 0.15643957 0.1329582 0.08328467
-0.10579011 0.18614338 -0.29609638 0.41715673 0.34571776 -0.0077514276 -0.075020045 0.1289787
0.049668703 0.015814135 -0.013355238 -0.21498287 -0.115418024 0.01856341 -0.17585398 -0.16701321
-0.36591482 0.19682057 -0.02897311 -0.017388038 -0.095374584 -0.0837478 0.015149826 0.07448153
0.14082207 -0.061939154 -0.04763759 -0.03905564 -0.009657347 0.017781049 -0.66274095 0.023093779
-0.024290135 0.03211824 -0.06627434 0.04437286 0.12294489 -0.1285907 -0.002766743 -0.04018766
0.02476334 -0.0027204696 0.007057022 0.012471308 0.005006177 -0.0012568607 -0.0025927243 0.0423203
0.022550749 0.04137843 0.017637188 0.003121782 0.01249566 0.015987001 -0.0005884686 -0.009771913

fc1.bias f4 [128]
00000000: 9e38 4dbe 3756 50bd a233 8fbe b10e ccbe
00000010: d404 1cbd a323 63be 9aa6 cbbc 6ab8 babe
00000020: b24b 0a3e c08e 333e 982b ec3d 80d7 fcbd
00000030: 1778 8dbd cbe8 80be eb54 37bd d896 93bd
00000040: a03d 7cbc 4b25 30be e6f9 a0bd e8de 72be
00000050: 81d0 33be 7122 97bd 2c62 cbbd 1f90 f5bd
00000060: 96fc 76bc e86e 1e3c 6c52 123e f8e1 92bd
00000070: 29b5 4fbc cbff 3e3c 254a e5bd aade 85be
00000080: 1072 8abe 4bf6 e33d 4d27 8fbe d50e 2f3e
00000090: 8cab 77be 99e7 583c 5d50 7e3d bc86 8cbe
000000a0: 859d 50bd e5a7 23be 4ca0 53be 522e 59be
000000b0: 4e38 38be 241e bd3b 0a98 a5be bbf7 76bd
000000c0: 419c 27be ec5f 39bd efe3 77bd 6d46 9fbe
000000d0: a22e 653e 11b9 48be 531d 94bc 549c 5b3e
000000e0: 3e3f 8bbe 534b 88be 8c08 e93d b18a ee3d
000000f0: 6216 0a3c 6836 3a3e 1cd7 263e 47cd 823e
00000100: 4887 a4bd dd11 673d f85c 5dbe 377c 33be
00000110: 22b8 40be d7e2 0a3e 4465 4abd 2c4c 6f3b
00000120: 3c40 e4bd 3dea 223d b3a3 42be 0b41 f6bd
00000130: 2ead 1fbe 9270 883c 3be5 8d3d 55cf a2be
00000140: 120e 8ebe da68 5e3d 8094 d5bd afc7 4d3e
00000150: c24e 8abe 3d8d 85be 4c76 97bd cc1a 3bbe
00000160: 2806 e93d b832 9ebd a6b2 91bd 5b1e 143d
00000170: e02d aebd 22c1 fbbd 8b07 713d bc2d 6cbe
00000180: d4f3 85be 045e afbe dfb1 0fbe 9ba3 2d3d
00000190: fbce 85bd 79d2 46be 9691 96bd cb56 833e
000001a0: 82c5 65bd fc82 81be 6799 d5bd 6898 9ebd
000001b0: 3915 a43b 0e6d b5be 2ddb 513b 0d15 5fbd
000001c0: 28f9 7abe 7db9 32be d345 81be 1d1d c7be
000001d0: eda6 e0bd b6ca 45be 7448 bdbd 0d0d 873d
000001e0: 3abb b7bd 464b 67be 51a3 c1bd a0cf f73d
000001f0: 6142 c3bc 9c53 363e 71d4 b7be f874 6bbe
-0.20041129 -0.05086347 -0.2796908 -0.3985496 -0.038090542 -0.22181563 -0.024859715 -0.36468822
0.13505438 0.17534924 0.11531752 -0.12345791 -0.06907671 -0.25177607 -0.04475872 -0.072065055
-0.015395552 -0.17201726 -0.07860164 -0.23717844 -0.17560007 -0.07379616 -0.09930834 -0.119903795
-0.01507487 0.009669997 0.14289254 -0.07172006 -0.012677469 0.0116576655 -0.111957826 -0.26146442
-0.27040148 0.11130961 -0.27959672 0.17095502 -0.24186534 0.013238811 0.06208836 -0.27446544
-0.050931472 -0.15982015 -0.20666617 -0.21209076 -0.17990229 0.0057714153 -0.3234256 -0.060294848
-0.163682 -0.045257494 -0.06052011 -0.31108418 0.2238107 -0.19601847 -0.01808039 0.21446353
-0.27196687 -0.26619968 0.11378583 0.11647547 0.008428188 0.18184817 0.16292995 0.2554724
-0.08033615 0.05641352 -0.21617496 -0.17527853 -0.18820241 0.13563095 -0.04941298 0.0036513908
-0.11145064 0.03977417 -0.19007759 -0.12024125 -0.15593407 0.01665524 0.06928488 -0.31798807
-0.2774511 0.054299213 -0.10428715 0.20095704 -0.27013212 -0.2608432 -0.0739561 -0.18271941
0.11378127 -0.077245176 -0.071141526 0.03616176 -0.08504844 -0.122926965 0.058845084 -0.23064321
-0.2616259 -0.34251416 -0.14032696 0.042392354 -0.06533619 -0.19416226 -0.07351987 0.25652155
-0.05609656 -0.25295246 -0.1042965 -0.07743913 0.0050074128 -0.35434765 0.0032021508 -0.054463435
-0.24509108 -0.1745357 -0.25248584 -0.388894 -0.109693386 -0.1931561 -0.09242335 0.06594286
-0.089712575 -0.22587308 -0.09454978 0.12100148 -0.023835363 0.17805332 -0.35904267 -0.22993839

fc2.weight f4 [128, 132]
00000000: 127a 62bd f1c7 173d c891 f2be e46e 40be
00000010: c99f 373e 75ff 143d fe79 d4bd 14a7 fa3d
00000020: d83a 05bd c4c6 0cbe 7ea8 533d 08f0 71bd
00000030: 3a11 75bd 5dce 183d 2a7c 893c 5131 2dbe
00000040: 8bcd 573e 5db7 4bbd 6dd5 85bc 89c4 5f3c
00000050: f0cf 363c a738 1d3e 3034 55bd 9fec 613e
00000060: 7811 ed3d ce6a f6bd 5fa9 12be 0422 483e
00000070: 9640 3c3c 455f 87be ed57 ae3d d421 23bd
00000080: 5696 12be 51b0 ef3d 6ae1 1b3d c748 63bb
00000090: 6beb b3be 587b 173e bca6 88be 4c1d 0b3c
000000a0: 61d3 52bd 602a e1bc c406 36be 0ab4 9fbd
000000b0: e281 7bbd ea7f 4dbe 6a0f d13d ed9e 2bbe
000000c0: f3ee ab3d 8212 1e3d 3b99 58bd 5929 dbbd
000000d0: a63c 85bd bd1d 0e3e 5599 bdbd 1131 463d
000000e0: 536f 9dbe 8bd9 823e 1feb 8d3c d53a a1be
000000f0: 27e9 98be 6f43 043d 2d62 313e 06d1 2f3d
00000100: dadb 21be eb7c cbbe a5e9 e6be 9295 c73d
00000110: b3a6 093d 6899 14bd 114b 313e 4f37 14bd
00000120: 6246 423c 48b0 e7bc d0da dcbd 52a4 55be
00000130: 701d c53b 793e 4d3d ee5a c2bd 58ce 353d
00000140: ea75 913d ea52 76be 0ac2 77bd 481b 46bd
00000150: 93e6 3a3e df73 1fbe ebed 8abd 0eef 94be
00000160: 9981 a7be f46e 2a3e c5d0 3dbe d139 a5be
00000170: 71b3 dfbd 990f 74bc 76f7 64bd 5539 cf3d
00000180: 6351 4ebe 759c 5dbe ba37 8a3d 06f4 76bd
00000190: 1a33 c83c e0ed b7be a214 323d 00a3 f1bd
000001a0: 368b bbbc 628c 46be bcc5 c43d f5a1 0ebe
000001b0: f6f1 293e 73c5 01be 48de c2bd fea9 66bd
000001c0: c836 a83d f0db 7dbe 5b50 13be a054 92bd
000001d0: 325f fdbc b871 18bc ecea 473d 5891 32be
000001e0: 0a7b 743e 6485 97bd fea4 133c 2803 07be
000001f0: 357d 03be bdc8 18bd 29e2 9ebd ec9d 573c
00000200: c0c0 773c 322d e13c 782a 73bd c861 11bd
00000210: f15e c9bd eed2 00bc 8c90 ec3d d978 eabd
00000220: de79 39be f387 31bd 0675 2a3e 3aa3 58bd
00000230: 7452 5d3c f098 38be 0cec 963e cabd ac3d
00000240: 8ada 95bd 9708 23bd 6148 a9bd 58a2 053e
00000250: 1448 8a3d fb83 523e 1173 573d 41dc f6bd
00000260: 8c96 e53d f7b3 febd 56b4 f8bb c61c 873e
00000270: 8c5f 9b3d b6b0 033e 07ca 07bd a18d b83c
00000280: ff44 28be 7663 ccbd febd 823d 17b4 a1bd
00000290: a89d 27be 4a89 34be 489b bd3d 5157 ff3c
000002a0: ce58 823c d3bc d03d 57bb 2fbd 07b9 abbd
000002b0: e3df 0cbe d845 d2bd 2952 ae3d ae69 1cbc
000002c0: 2e86 58be f61b 333d 0144 eabc 8180 3abd
000002d0: 6f11 bbbb 655f bbbd 91f8 393e 6068 34be
000002e0: f580 38bc ea36 e9bc 8496 48be 1c87 a33e
000002f0: 6cb5 4abe 306d aabe 9aca 273e 7d14 513d
00000300: e651 313e fac5 06be 9e51 003e 8699 8bbc
00000310: c26a d8bd 619f f8bd 0378 c93b 8a9f 293d
00000320: 0411 993c 6179 993c ccfb b93c 4887 003c
00000330: b7de 43be 66b1 4e3e 2a7b 12be 7381 30bd
00000340: 6e63 2e3e 1ece 0abe 2dbc e7be 68b3 133d
00000350: 2b31 29be 1997 f9bd 7671 eb3d df37 09be
00000360: 3094 373e 1f8b 9dbd 9c7c fa3d a243 e6bd
00000370: e0a7 153e 856d 263e 726b 6abc 2aa0 d3bd
00000380: 03cd d1bc 9464 f83b 3521 083e 804c 403e
00000390: 0053 5ebd f31a b8bd 3f61 17bd 813a 10bc
000003a0: e072 4d3c 29f0 a5bd ca36 893d 7e15 f2bc
000003b0: 2c7c cc3d 060a 4e3c 1ead fb3d c398 963e
000003c0: b916 313d 5a75 4c3e d1d1 69bc 9e97 d53d
000003d0: 30a7 103e bc3a 60bd 9e9f b0be 60c4 053e
000003e0: 92b5 353e 7d25 22be df7e 383c 2a8b ce3d
000003f0: e435 853d ee75 0fbe 8b76 ad3d fa36 093e
-0.055292197 0.037055913 -0.47376847 -0.18792301 0.17932047 0.036376435 -0.10374831 0.12238899
-0.03252682 -0.13747698 0.05167436 -0.059066802 -0.05983088 0.03730618 0.016782839 -0.16913344
0.21074502 -0.049735416 -0.01633712 0.0136576975 0.011157975 0.15353642 -0.052051723 0.2206292
0.115755975 -0.1203209 -0.14322422 0.19544226 0.011490008 -0.26439872 0.08512864 -0.039827183
-0.14315161 0.117035516 0.03805677 -0.003468083 -0.35140547 0.14793146 -0.26689708 0.008490872
-0.051471118 -0.027486026 -0.17776018 -0.077980116 -0.061403163 -0.20068327 0.10208018 -0.16759844
0.08395185 0.03859187 -0.052880507 -0.10701246 -0.065057084 0.13878532 -0.092577614 0.048386637
-0.30748996 0.25556597 0.017324029 -0.31490198 -0.2986538 0.032290872 0.17322607 0.04292395
-0.15806523 -0.39743742 -0.45100132 0.09745325 0.033606242 -0.036279112 0.17313792 -0.03618556
0.011857601 -0.0282823 -0.10783923 -0.20863464 0.006015472 0.050108407 -0.0949 0.044386238
0.071025684 -0.24055067 -0.060487784 -0.04836586 0.1825202 -0.15571545 -0.067836605 -0.29088634
-0.32716063 0.16643888 -0.1853667 -0.32270673 -0.109228976 -0.014896297 -0.05590006 0.10118357
-0.20148234 -0.21641715 0.0674891 -0.060291313 0.02443843 -0.35923672 0.04347671 -0.11798668
-0.02289353 -0.1938949 0.09608027 -0.13928969 0.16596207 -0.12672977 -0.09515053 -0.05631446
0.08213574 -0.24790931 -0.14386122 -0.07145047 -0.030929182 -0.009304456 0.048808023 -0.17438257
0.2387506 -0.07398489 0.009011505 -0.13184798 -0.12840731 -0.037300814 -0.077579804 0.01316021
0.015121639 0.027487371 -0.059366673 -0.035493642 -0.09832562 -0.00786279 0.11551008 -0.11448831
-0.18112895 -0.043342542 0.16646203 -0.05289004 0.013508428 -0.18027091 0.29476964 0.08434637
-0.07317074 -0.039803114 -0.08265758 0.1305021 0.06752029 0.20558159 0.05259997 -0.12053729
0.11210355 -0.12436669 -0.007589857 0.2638914 0.075865835 0.12860379 -0.033151653 0.022528471
-0.1643257 -0.09979908 0.063838944 -0.078956775 -0.16368735 -0.17630497 0.09258133 0.031169565
0.015911486 0.10192265 -0.04290327 -0.083849005 -0.13757281 -0.10267228 0.085117646 -0.00954668
-0.21144935 0.043727838 -0.02859688 -0.045532707 -0.0057088654 -0.091490544 0.18161227 -0.17617941
-0.0112612145 -0.028468568 -0.19588667 0.31939018 -0.1979577 -0.33286428 0.1638588 0.05104493
0.17316398 -0.1316146 0.12531134 -0.01704098 -0.105672374 -0.12139774 0.0061483397 0.041411914
0.018684871 0.018734636 0.022703074 0.007844754 -0.19127928 0.2018486 -0.14304796 -0.043092202
0.17030117 -0.1355519 -0.45260754 0.036059767 -0.16522662 -0.12187023 0.1149625 -0.1340022
0.17927623 -0.07692551 0.122307986 -0.11243369 0.1461482 0.16252716 -0.0143078435 -0.10333283
-0.025610453 0.007580349 0.13293917 0.18779182 -0.054278374 -0.08989515 -0.036957975 -0.008803011
0.012539595 -0.081024475 0.06699903 -0.029551264 0.099846214 0.012575632 0.12288879 0.29413423
0.04323456 0.19966641 -0.014271216 0.10429309 0.14126277 -0.054743513 -0.34496778 0.13063192
0.17745045 -0.15834613 0.011260717 0.10085137 0.065044194 -0.1400983 0.08469876 0.13399878

fc2.bias f4 [128]
00000000: 937b 6bbc 4745 813d 49d4 0cbf 5ca9 6bbe
00000010: 6e92 93be 764c 58bc 31af 19be d72e 86be
00000020: 59bf 2ebd de7f 903e 8f14 a8be deae ccbe
00000030: c13e 903e e5a3 103d d38c c33d 7290 873e
00000040: 4675 13be 5ab5 2a3e c111 97be 6f07 9abe
00000050: 1dc5 673e d126 da3e 9fa8 4fbe ae4f a1be
00000060: af65 90be 7592 45bd d56c 7dbe 91cd 5d3e
00000070: b019 af3d 3c0c 1fbe bced 903e 6757 fb3e
00000080: e4ac 09be 8e3d 893d da3e de3d 170a 12bd
00000090: 30cd a6be 59f5 253e 4fc4 4abd 6fdd 7f3e
000000a0: fe8d 5bbe 825b 9fbe 5616 95be 4843 b5be
000000b0: f733 a3be 82a6 96be ae38 45be 89b5 bdbe
000000c0: 4085 82be bfab 223e c435 6b3e 8117 c3be
000000d0: 134e e53d 8c7b b03e f7d3 68be 38cc adbe
000000e0: 3f0c dc3e ceaa 6ebe 2a7a 0c3f 239d 83be
000000f0: d5fe 50bd 10e4 99be 7b36 d1bd 340e 9cbe
00000100: 300c 10be 2a66 103e e4f6 67be 548e 7abd
00000110: 337c 2b3e 8601 b7be 7437 803e f67a 3fbe
00000120: bca7 153e 68db 58be 7b29 143e 7a67 8fbe
00000130: 6296 31be 7f1f 7c3b 287a aebe 8019 4bbe
00000140: 9163 953e 5b35 d53d 82f7 82be 6ec1 6bbe
00000150: 4840 46be ac2a 183e 82e5 9a3d 2b31 663d
00000160: c225 acbe 81b4 8dbc 0b27 a13e 16e1 22be
00000170: 6137 57be bb90 913e b753 21be f0d4 153e
00000180: b091 82be 6b6b 7ebe d0b0 86be 2163 4fbe
00000190: c3a1 a23d dce5 dbbd 036c 8abe 8473 babe
000001a0: deea 39be 9010 e43d a1c6 3a3e 89d8 07be
000001b0: a8a7 b1be f2e9 a43e 7130 87be 7290 793e
000001c0: e715 90be a6e2 2c3e d3c0 5f3e d263 83be
000001d0: fe42 93be 35ea b7be 5f03 f83d 8808 08be
000001e0: a357 8dbe 5073 89be 3ecb 8ebe 5afa 64bd
000001f0: 1d8a 1dbe 3c4e 7cbe 77a7 6d3e 222d febd
-0.014372724 0.06312042 -0.5501142 -0.23013824 -0.28822654 -0.013201823 -0.15008236 -0.2620761
-0.042662952 0.28222555 -0.32828185 -0.39977163 0.28172877 0.035312552 0.095483445 0.2647739
-0.14400205 0.16670743 -0.29505733 -0.30083796 0.22633786 0.4260774 -0.20279168 -0.31506103
-0.28202578 -0.048235375 -0.24748547 0.21660449 0.085498214 -0.15532011 0.28306377 0.4909012
-0.13444859 0.06701194 0.10851832 -0.035654154 -0.3257842 0.16206874 -0.04950362 0.24986814
-0.21440884 -0.31124502 -0.29118603 -0.35402894 -0.31875584 -0.2942391 -0.19259903 -0.37052563
-0.25492287 0.15885828 0.22969729 -0.3810387 0.11196532 0.3446926 -0.22737108 -0.3394487
0.42978093 -0.23307344 0.5487391 -0.25705823 -0.051024277 -0.3005681 -0.102154694 -0.30479586
-0.14067149 0.14101472 -0.22652775 -0.06117089 0.16746597 -0.3574335 0.25042307 -0.1869925
0.14614767 -0.21177447 0.14468949 -0.28008634 -0.17342523 0.0038470922 -0.34077573 -0.19833946
0.29177526 0.104105674 -0.25579458 -0.23023006 -0.19360459 0.14860028 0.075633064 0.056199234
-0.33622557 -0.017297985 0.314751 -0.15906176 -0.21017219 0.28430733 -0.15754591 0.1463201
-0.25501776 -0.24845664 -0.26306772 -0.20252658 0.0794101 -0.107372016 -0.2703553 -0.36416256
-0.18156001 0.111359715 0.18239833 -0.13266195 -0.34698224 0.32209736 -0.26404145 0.24371508
-0.2814171 0.16883335 0.218509 -0.25662094 -0.28762048 -0.35920873 0.12110018 -0.13284504
-0.27605924 -0.2684579 -0.27889436 -0.055902816 -0.15384717 -0.24639219 0.23208414 -0.12410952

fc3.weight f4 [1, 128]
00000000: 9164 ff3d 310b 993d 7c57 6abe 3b49 d1bd
00000010: 6e9f 7fbe 6fad 713e 0d21 1abe 7210 34be
00000020: 31d5 523d 8bad 313e 7373 69be f5d9 2fbe
00000030: d278 ef3d f2ca 693e 371f 343e 2ca1 033e
00000040: dc66 c4bd c1e6 8f3d 7bd4 01bf ecfb 2dbe
00000050: 89bb c93d cfe8 103e dbcc 39be a4f4 76be
00000060: d132 01be ad05 fe3d 7e61 02be 89d1 9e3d
00000070: daae 033e da67 77bd 09bd 313e 6c17 123e
00000080: 6069 2cbe 7c58 d93d 2bd6 fc3d 563c 2b3e
00000090: 3721 72be 72df 1b3e 0b75 fa3d 38cf e13d
000000a0: fbf9 0ebe 9123 14be b56e 78be 96d9 2fbe
000000b0: fd88 91be 81b7 afbe 3ccf adbd b469 a8bd
000000c0: ae20 4ebe 1ab4 c73d ea9f de3d f60a 22be
000000d0: da2c ce3d 3299 2d3e 9513 aebd e8d4 50be
000000e0: a9bd ff3d 7902 e4bd c406 2b3e 0239 8ebd
000000f0: 49c8 d13d 8ce9 27be 145b dc3d 8b92 afbe
00000100: 7958 8bbe 7c14 073e 4b87 02be 1030 4b3e
00000110: b204 853e 7c8f d1be 6cf4 fd3d 2afb 9fbe
00000120: 7551 543e 4cac afbd 2438 9f3d 1b62 d8bd
00000130: a12f b3bd 67b3 0b3e 726c f2bd 3e02 11be
00000140: e902 243e fe6f c43d fde5 2ebe 91f9 07be
00000150: ee56 b0bd 957f cb3d 7010 d53d ea18 033e
00000160: 46cc 44be ab7c 4a3e 8d17 ae3d 03ce 333e
00000170: 1067 863e 6e96 103e 3c7b 6e3e 56ef 193e
00000180: a1cc 23be 4e8d 10be ab12 8fbe 1f7f f3bd
00000190: cca8 ff3d 5187 893e d122 56be af2e 0dbe
000001a0: d93e abbd 2448 143e 57e6 b93d 2e3b 7a3e
000001b0: b1c6 52be 5f77 ff3d 2e44 1abe dbdc d63d
000001c0: e0c6 78be 77ea f53d 37e4 f63d 7c72 05be
000001d0: 0370 82be 4430 4dbe d9a7 e83d e2be 69be
000001e0: 068a b5be 0ea5 29be 4200 80be 537a 133e
000001f0: a71c 08be 35f6 f7bd 05ea 353e 5af5 fcbd
0.124703534 0.07472838 -0.22884935 -0.10219046 -0.24963161 0.23601316 -0.1505167 -0.17584398
0.051472846 0.17351358 -0.22797947 -0.17172988 0.116929665 0.22831324 0.17590033 0.12854451
-0.09589931 0.07026435 -0.50714844 -0.16990632 0.098502226 0.1415131 -0.18144552 -0.2411676
-0.12617041 0.12403426 -0.12732503 0.077548094 0.1285967 -0.060401775 0.17357267 0.14266747
-0.16837072 0.1061258 0.12345537 0.16722235 -0.23645483 0.15221956 0.122293554 0.11025852
-0.13962547 -0.14466693 -0.24260981 -0.17172846 -0.28424826 -0.3431969 -0.084867924 -0.08223286
-0.20129654 0.097511485 0.10870345 -0.15824494 0.100671485 0.1695297 -0.08499829 -0.20393717
0.12487347 -0.11133284 0.167018 -0.06944467 0.102432795 -0.16397685 0.10759559 -0.3429149
-0.27215937 0.13191408 -0.12746923 0.19842553 0.25980145 -0.40929782 0.124001354 -0.3124631
0.20734198 -0.08577785 0.0777438 -0.10565587 -0.08749319 0.13642655 -0.118370906 -0.14161012
0.16016735 0.09591673 -0.17079921 -0.13278796 -0.086103305 0.09936444 0.10403526 0.12802473
-0.19218549 0.1977412 0.08500586 0.17559056 0.26250505 0.14119884 0.23289198 0.15032706
-0.15996028 -0.14116403 -0.2794393 -0.11889481 0.12483367 0.2686105 -0.20911719 -0.1378734
-0.083615966 0.14480644 0.09077137 0.24436638 -0.20583607 0.1247394 -0.15065071 0.104913436
-0.24294615 0.12007611 0.12055247 -0.13031954 -0.25476083 -0.20037943 0.113601394 -0.22826722
-0.35456866 -0.1656687 -0.25000197 0.14402132 -0.1329218 -0.12107507 0.17765053 -0.123514846

bn1.weight f4 [128]
00000000: 77d1 813e c188 6e3f 66cf 143f 3c08 a83e
00000010: 71ba c43e 155a a83e d191 1b3f c8dd 533f
00000020: b6f3 643e b067 f93e 4958 d23e cefd e63e
00000030: be97 213f a52e bd3e 116b 9e3e 0393 043f
00000040: 48e7 013f ff80 a73e 0937 eb3e 4e7c 853f
00000050: b077 f53e 62a2 553f 6ea6 173f 2b45 383f
00000060: 1c58 863f 4851 d33e cbf8 1b3f 9fc7 c13e
00000070: 1527 f93e f528 053f b524 3b3f be5f 073f
00000080: a63c e53e b947 e33e b008 4c3e ae0d 9f3e
00000090: fb95 203f 3ab7 1f3f 24a5 f03e ef94 963e
000000a0: cfa0 0f3f 169d bd3e 60f5 323f b543 903e
000000b0: e8da a23e b09d 233f 98d5 9f3d db93 463f
000000c0: 0cf5 fb3e 61be 043f 905d 023f dc27 b53e
000000d0: 5da3 873e d4a2 9c3e d8d6 c13e a11d d43e
000000e0: 3d99 273f 348a 313e e198 1e3e cebf a33e
000000f0: 6658 8c3e 4e55 053f fb1b 273f 2d97 d13e
00000100: b06c d73e b781 943e 3c35 8f3e 451a ef3e
00000110: 10e4 ca3e 6f56 c23e 5050 d53e 1174 943e
00000120: 2a60 4a3e 0469 1e3f b94b 413f 8a6c f53e
00000130: 6a15 023f 86c8 823e 7f42 833e a96f 6d3f
00000140: 04f6 253f 6816 d03e 1739 853e d824 513f
00000150: 4b59 4c3f 4ebe 183f 2db3 033f a887 1b3f
00000160: ae8d 583e 9f65 ca3e bd9f ef3e 04f4 cd3e
00000170: 505a e13e c7b0 de3e 187e ee3e 82e1 473f
00000180: 8d28 8f3e a983 813e 41a9 023f 08fb ba3e
00000190: adaf 0a3f 3fb6 fa3e 4e1d a93e 0f76 a03f
000001a0: 59e1 6e3f c603 083f 0b32 c63e 7766 c23e
000001b0: 6f4d fe3e 24fa a13e 335f af3e 929c fd3e
000001c0: ce30 873e d514 cb3e e8aa eb3e 5a24 303f
000001d0: 8012 ac3e 3cce 1b3f 706e 3f3f a605 cb3e
000001e0: 2413 f03e 5535 f53e 38a3 063f 8dd8 153f
000001f0: f24c 143f ac2c 833e fcd3 e03e 7551 a53e
0.25355121 0.9317742 0.58128965 0.32818782 0.38423494 0.32881227 0.60769373 0.82760286
0.22358593 0.4871192 0.4108298 0.45115513 0.63122165 0.3694965 0.3094106 0.5178682
0.5074353 0.32715604 0.45940426 1.042856 0.47942877 0.834509 0.59238327 0.7198054
1.0495639 0.4127295 0.609265 0.3784761 0.4866263 0.5201562 0.73102885 0.52880466
0.44772834 0.44390658 0.19925189 0.31065124 0.6272885 0.62388957 0.47000992 0.29410502
0.5610475 0.3703391 0.6990566 0.28176656 0.31807637 0.6391249 0.07804412 0.7756936
0.49210393 0.51852995 0.50924015 0.35381973 0.26491824 0.30592978 0.37859225 0.41428855
0.654682 0.17337877 0.15488006 0.31982273 0.27411193 0.5208329 0.6527707 0.4093565
0.4207511 0.29005215 0.27970302 0.4669973 0.39627123 0.3795657 0.41662836 0.28994802
0.19763246 0.6187899 0.7550617 0.4793437 0.50813925 0.25543612 0.2563667 0.92748505
0.64828515 0.40642095 0.2602012 0.81696844 0.7982375 0.5966538 0.51445276 0.6075387
0.21147797 0.39530656 0.46801558 0.40225232 0.44014215 0.43494245 0.46580577 0.7807847
0.27960625 0.2529576 0.5103951 0.36519647 0.5417431 0.48967168 0.3303017 1.2536029
0.93312603 0.5313076 0.38710055 0.379688 0.49668452 0.31636155 0.3425232 0.49533516
0.26404423 0.3966433 0.4602883 0.6880547 0.33607864 0.60861564 0.7477789 0.39652747
0.46889603 0.47892252 0.525928 0.58533555 0.5792991 0.2562002 0.4391173 0.3228871

bn1.bias f4 [128]
00000000: ff4c 613d 4c83 c43c 7467 e93d f14b f43e
00000010: e84c 88be a143 4c3d 78db 22bd 786b 6d3e
00000020: 75f5 61bd 251d 3e3e 9d4a 2f3d 35fb 483e
00000030: e4f7 0b3e 76ae a43d 0e7f 64be 7f78 b0be
00000040: 5bd5 32be 05f2 373d 7e4a 93bd 81b7 263e
00000050: d329 803c 352c 973d 920d 02bd d818 9f3d
00000060: 32a4 323e 3292 8a3d 6f48 b2bc 7235 edbd
00000070: fbe2 0a3e 773f bf3d 54c3 803d ed21 b83e
00000080: 58fd 4d3e cd01 b23c 29c6 0ebe b7a3 e3bd
00000090: d63d 4c3c f112 3d3e 4ed2 bebd 6101 8e3c
000000a0: b100 823e 4a93 66bc 6e21 003e fb2c 21bc
000000b0: b0d6 89be 0003 cd3d 20f0 fa3d adea 283e
000000c0: eb70 953e b56b 2a3c c9ef 2fbc 9431 d0bb
000000d0: 7f25 8d3d 459c c33b ec2c 13bd 395f c43d
000000e0: e58f 283e 4fdb 3b3e 934e 2d3e 9df4 5a3c
000000f0: d603 4abd e501 31be d601 183e 9838 083e
00000100: 44a6 65be 88a0 9d3e efe9 083e c96e 16be
00000110: 5218 4abd e7d3 393d 63a0 d8bc f98d 8abc
00000120: b434 8bbe 7b83 c53e f227 d63d ea68 e4bd
00000130: 6ebe 403c 834c 503c 62c1 6ebc 9b53 15be
00000140: a04f 06bd c8f9 b3bd 5045 9a3e 736f d03d
00000150: 03ea 8bbd 6421 683c 593f efbc 1d61 983d
00000160: d37d 213e 7e05 5abd ba35 dbbd e4bf a63d
00000170: 929c d7bd 5b01 47bc 212f a33e b83a 243d
00000180: 3b70 793d df01 363d 98f6 f83d 2561 203e
00000190: f230 35be e68f 833e fa06 88bd 0ad1 8a3d
000001a0: cf7b 713e a5f6 ea3d c32d ac3d 1cb5 123e
000001b0: 4dc2 8bbd d50b c6bd 3257 a0bd 2793 d1bc
000001c0: 6b47 5a3e adbf cfbd 8513 8f3d 5bf4 3b3e
000001d0: c98e b6bd 900a 963e a956 0fbe 1f39 843e
000001e0: 4b61 14bd a155 213d 3b44 493d 1cee 833e
000001f0: ae14 2cbc 19d7 513e 721b 7dbd e7a8 0ebe
0.05500507 0.023988388 0.11396685 0.4771419 -0.26621175 0.049869183 -0.039760083 0.23185527
-0.055165727 0.18565805 0.042795766 0.19627078 0.13668782 0.08041088 -0.22314093 -0.3446693
-0.17464201 0.044908542 -0.07191943 0.16280939 0.015644943 0.07381479 -0.031751223 0.077684104
0.17445448 0.06766166 -0.021763055 -0.115824595 0.13563149 0.09338277 0.06287256 0.35963383
0.20116174 0.021729374 -0.1394278 -0.111152105 0.012465915 0.18464257 -0.09317456 0.017334642
0.25391153 -0.014073202 0.12512752 -0.009837384 -0.26921606 0.10010338 0.122528315 0.16495772
0.29187712 0.010401656 -0.010738322 -0.0063535664 0.068919174 0.0059695565 -0.035931513 0.09588475
0.16461141 0.18345378 0.16924505 0.013363984 -0.049320064 -0.17285879 0.1484445 0.13302839
-0.22426707 0.30786538 0.13370489 -0.14690699 -0.0493396 0.0453681 -0.026443666 -0.016913401
-0.27188647 0.38576874 0.10456838 -0.11152823 0.011764152 0.012713554 -0.014572473 -0.14582674
-0.03279078 -0.08787876 0.30131006 0.10177507 -0.068317436 0.014168117 -0.029205011 0.07440398
0.15770654 -0.053227894 -0.10703607 0.08142069 -0.1052791 -0.012146319 0.31871894 0.04009506
0.060898047 0.04443538 0.12156409 0.15662058 -0.17694452 0.25695723 -0.06641956 0.06778152
0.23582385 0.11472825 0.08407166 0.143269 -0.06824169 -0.096702255 -0.07829131 -0.025582863
0.21316306 -0.10143981 0.06986145 0.18354933 -0.08913953 0.29304934 -0.13997902 0.2582483
-0.0362256 0.039388303 0.049137335 0.257676 -0.010502977 0.2049221 -0.061793752 -0.13931619

bn1.running_mean f4 [128]
00000000: 11ed d13d a832 973e 5836 d73d 87d7 353e
00000010: 8414 d23e f828 ef3e bf1c 023f 7900 af3d
00000020: b917 353e 07e8 0e3f 255e c93e c603 aa3d
00000030: baec c03e b5ec 333e 5e30 263e d76a da3e
00000040: 9faf 023f 949b 9e3e 9e3e 573e d174 123e
00000050: b66a 553e 5c0a 3a3e 285d 1c3e 43e6 a23e
00000060: 496a 943e b7b4 ce3e 4505 e53e c389 7b3e
00000070: 373c c33e 26e1 d63e 52d6 713e 0999 e13e
00000080: 1370 4e3e 2d60 2e3e be4e 863d 79bf 393e
00000090: 256d 8f3e bbe4 af3e afb9 fa3e 44b6 943d
000000a0: 8fd2 503e 117c ba3d 372f f33d be20 1b3e
000000b0: d314 803e 62e1 603e 6a8a dd3d fe6b 393e
000000c0: f276 043e 7668 e93e 0a3d 853e b0bc 8d3e
000000d0: 8509 b03e 51bc bf3d bd46 0d3e 1b4b b53e
000000e0: af9a 183e 1b00 a03d eab4 4b3e 2ff9 773e
000000f0: 1eaa 7a3e ec35 ea3e c02f 663f 8cd1 de3e
00000100: 57fc 123e 3b22 6e3f 8345 a23e a5dc 573e
00000110: ccc2 233e ffc3 463f 872a 3a3f b70e 633f
00000120: b2a5 5c3e d2f0 303e 20b5 473e cf0a 8d3e
00000130: 50d8 a43e 358f 3f3f 6c4b 033f 774e 093e
00000140: d882 2c3e 2462 a13e 11ff 553f 3c0c 093f
00000150: bab1 013e 5dc0 053e 4762 273e 7f4e 0a3e
00000160: 0119 9a3e e9eb 0f3e d245 d83e f1c7 1d3f
00000170: 2045 d53d d9a0 c63d 923e a53f a90d 143f
00000180: fb62 133d 9a0d 7d3d 17bf ef3e f293 cf3e
00000190: 51f9 9a3e b959 d73d eec1 3b3f 0bc6 0b3f
000001a0: d813 b63e 4fd7 863e 478e 053e 9c9c 043f
000001b0: 0036 913e ce29 373e 1584 333f 6fb9 883e
000001c0: 7faa 833d 0369 593e 48ac b63e 7c6f 953d
000001d0: 85b0 d03d d308 603e 97c3 a73e b5cc b93e
000001e0: dc4f d03e 7ae1 253e 89e5 9a3e a27f 873f
000001f0: c029 d73e 3c0b 8e3f 044b 6d3d 959c 713e
0.10250295 0.29530835 0.10508412 0.17757998 0.41031277 0.46710944 0.50825113 0.08545012
0.1768483 0.55822796 0.3932964 0.08301501 0.37680608 0.17570765 0.16229388 0.42659637
0.51049227 0.30978072 0.2101998 0.14302374 0.20841488 0.18168014 0.15269911 0.318163
0.2898734 0.4037225 0.44730583 0.2456427 0.38131878 0.4196865 0.23616913 0.4406207
0.2015994 0.17028876 0.06557988 0.18139447 0.28012958 0.34354195 0.4896979 0.07261327
0.20392822 0.09105695 0.1187424 0.15149209 0.25015888 0.21960977 0.10817416 0.18107602
0.12935999 0.4558751 0.26023132 0.2768302 0.34382263 0.093620904 0.13796516 0.35408863
0.14902757 0.0781252 0.19893232 0.2421615 0.24478957 0.45744264 0.8991661 0.43519247
0.14354073 0.9302098 0.31693658 0.21080263 0.15992278 0.77642816 0.7272114 0.8869433
0.21547583 0.17279366 0.19502687 0.2754731 0.32196283 0.7482789 0.5128696 0.13408838
0.16846788 0.31520188 0.83592325 0.53534293 0.12665454 0.13061662 0.16346084 0.13506506
0.300972 0.14054836 0.4224077 0.6163321 0.10413575 0.09698648 1.290972 0.57833344
0.035983067 0.06178055 0.46825477 0.4054256 0.30268338 0.1051516 0.7334279 0.54599065
0.35562015 0.26336142 0.13042556 0.51801467 0.2836151 0.17887041 0.70123416 0.26703975
0.06429004 0.21231465 0.35678315 0.072966546 0.101899184 0.21878366 0.3276641 0.36288992
0.40685928 0.16199294 0.30253246 1.0585825 0.4202404 1.1097178 0.05793287 0.23594888

bn1.running_var f4 [128]
00000000: bb3d a33d 1442 663e a27b 863d bee4 df3d
00000010: e540 863e abba e93e aaed 693e 15e7 243d
00000020: c2ba e13d 1b9b 723e 6e39 6b3e e0ee 833d
00000030: 0162 b53e 684f f03d dcdb d23d 4c61 d43e
00000040: 2ac4 bc3e fea1 183e 2907 143e b8c4 d93d
00000050: ded0 033e 6283 f93d 4e24 ac3d 47d0 213e
00000060: 7efc 5e3e ba0c 7e3e 2eee cc3e c12e 1b3e
00000070: de15 993e 548b 853e 65d0 233e b964 ea3e
00000080: 566f e03d 9580 e73d d539 0c3d edeb 1e3e
00000090: 7a4f 1b3e e06e 833e 395e 753e cbeb 1f3d
000000a0: f50b 1f3e ff40 6a3d 3c06 b33d 11f8 ce3d
000000b0: 3074 3e3e d3b2 383e aeda 7a3d 2722 9e3d
000000c0: f571 a63d d5bf 9e3e 44e3 373e 1dd0 923e
000000d0: 5805 a43e e395 893d 9914 d03d 6da0 803e
000000e0: 5893 ee3d 377b 303d 2941 1a3e 4176 243e
000000f0: adf1 713e 03c6 4b3e da54 243f f092 2c3e
00000100: 0785 523d 9deb 513f f7b7 c83e eb20 f03d
00000110: 6e8f a43d 14cc 203f ce05 333f 3419 913f
00000120: 21c7 1a3e 0b67 db3d 3f61 043e 1ee3 583e
00000130: 2d4f 873e 0ad2 4e3f 7ec0 113f 5ec2 e33d
00000140: 7cc5 093e 7ab9 1c3e 88b4 783e fe7f 973e
00000150: f879 983d 7b80 9a3d 3400 b33d 7c0f 923d
00000160: 1030 0b3e 2190 c93d 2407 bb3e bbb4 363f
00000170: 87b5 773d 1045 ac3d 2d60 0e3f cc70 1e3f
00000180: 1bfd 743c 84c9 033d ab07 a23e f1ed 063e
00000190: 78bd 493e 89b5 693d 525b ef3e cd1e c13e
000001a0: f974 5c3e 4650 513e 0e99 953d 68ca 1d3f
000001b0: 60a7 243e 3c37 0b3e 3816 903e 4fc8 113e
000001c0: 51fe 073d f487 003e 1aca 9b3e 5614 1a3d
000001d0: 8ef2 7a3d 34b2 043e e470 4e3e 1ac4 4e3e
000001e0: dca0 bb3e aba6 ec3d e86d 473e 522c ef3e
000001f0: db66 8a3e 746b 9e3f 2e9d da3c 2303 083e
0.079707585 0.22486144 0.0656655 0.10932301 0.26221386 0.4565023 0.22844568 0.04025944
0.11021949 0.2369198 0.22971126 0.06442046 0.35426334 0.117338955 0.10295841 0.41480482
0.3686841 0.14905545 0.14455856 0.10633224 0.12872645 0.121832624 0.08405362 0.15802108
0.21776006 0.24809542 0.40025467 0.15154554 0.29899496 0.2608286 0.15997465 0.4577997
0.10958736 0.11303822 0.03423484 0.15519686 0.15167037 0.25670528 0.23961724 0.03904323
0.15531905 0.05719089 0.087414235 0.10105909 0.1859901 0.18036966 0.061243705 0.07721358
0.08127204 0.3100573 0.17957789 0.28674403 0.32035327 0.06718042 0.10160179 0.25122395
0.11649197 0.043086257 0.15063919 0.16060735 0.23627348 0.19899754 0.64191973 0.16852927
0.051396396 0.8200014 0.39202854 0.117250286 0.080351695 0.628114 0.6993073 1.1335816
0.15115024 0.10713013 0.12927721 0.21180388 0.26427594 0.80789244 0.56934345 0.11121057
0.1345424 0.15305129 0.24287617 0.29589838 0.07445139 0.07544037 0.08740273 0.0713186
0.13592553 0.098419435 0.36528885 0.7136952 0.060475852 0.0841161 0.556155 0.61890864
0.014952923 0.032174602 0.31646475 0.13176705 0.19701183 0.05705789 0.4674936 0.37718812
0.21528997 0.20440778 0.073045835 0.6163697 0.16079473 0.13595289 0.28141952 0.14236568
0.03320152 0.12551862 0.3042763 0.03761705 0.061266474 0.12958604 0.20160252 0.20191994
0.36646163 0.11555227 0.1947552 0.467135 0.27031597 1.2376542 0.026686277 0.13282447
